checkpoint_critic .pth (torch_old, 207491 bytes, 11 tensors)

fcs1.weight f4 [256, 33]
000000 1c 19 51 bf e4 11 25 40 2e b4 87 3f 68 4b 97 be
       -0.8167894 2.579217 1.0601861 -0.29549718
000010 6d 40 56 3e d1 68 4d 3f aa 53 40 40 09 37 04 bf
       0.20923014 0.8023806 3.0051064 -0.51646477
000020 a8 be 8a 3e 62 1c e0 3f cd 0c 77 be c8 5d 91 3d
       0.27098584 1.7508662 -0.24125977 0.070979655
000030 94 14 1b 3e 2c 5c 12 3f 08 4f 6e c0 9c cf 65 be
       0.15144569 0.57171893 -3.7235737 -0.22442478
000040 c9 99 72 bf 5c 4d 91 be 8c 43 33 bf e9 b7 4a be
       -0.9476591 -0.28379333 -0.70024943 -0.19796719
000050 40 6b e7 3d 38 2d 2c 3e 6d f6 8c 3e 44 86 b1 be
       0.11299753 0.16814125 0.27531758 -0.3467275
000060 74 6a 64 bf b9 10 7c 3d 02 29 73 3d be eb 11 bc
       -0.89224935 0.061539385 0.05936528 -0.008906303
000070 9c 9d cd bd 10 d1 71 3c 55 65 b7 3c bc bf 51 bd
       -0.10039827 0.014759317 0.022387186 -0.051208243
000080 be ec ba 3e 0b 72 07 40 69 22 d1 bf 50 55 b4 bd
       0.36508745 2.1163356 -1.6338626 -0.088053346
000090 70 26 b9 bf cc 65 86 bd 96 46 f6 bf 56 fe 8b 3e
       -1.4464855 -0.06562385 -1.9240291 0.2734248
0000a0 38 fe c3 be 36 bb b0 3e 13 87 4e bf 41 82 37 3e
       -0.3827989 0.3451783 -0.80674857 0.17920782
0000b0 8e f4 15 be cd a3 69 be cd 4d a2 bf 65 98 ab 3d
       -0.14644071 -0.22816391 -1.2679993 0.08378676
0000c0 55 b3 ac 3d 6a e6 49 3f 67 ef 1d bf 03 f1 47 3f
       0.08432642 0.7886721 -0.61693424 0.7810213
0000d0 fa 7b 81 3d d5 cb 8e 3e 6c e9 47 3f 3d 6f 68 3f
       0.06322475 0.27889886 0.7809055 0.90794736
0000e0 f6 09 bf bf ba d7 ae be c2 60 a9 3e 3c 6f 0e bf
       -1.4924915 -0.3414896 0.33081633 -0.5563848
0000f0 39 6a 22 bd 3d a2 61 be 24 4a a1 bc 4b 1d 33 bd
       -0.039652083 -0.22034545 -0.019688673 -0.043729108
000100 0e 22 12 3d 11 54 59 c0 c0 59 f8 bf 90 f5 30 3d
       0.03567701 -3.395756 -1.940239 0.043202937
000110 ae a0 8b 3e a1 4c 10 3f 66 1a d6 3e 8b 63 2f be
       0.27271026 0.56366926 0.41817015 -0.17127816
000120 92 dd e3 be be 2b 93 3c a8 2e 0e be ee d4 c8 3e
       -0.44504982 0.017965194 -0.13884985 0.39224952
000130 9b f4 53 be d0 60 52 bd 63 98 8b 3c 92 13 0f 40
       -0.20698778 -0.05136186 0.017040437 2.2355695
000140 f5 37 81 bd ce 15 78 be 73 f2 83 bd 3a dc cc 3d
       -0.06309501 -0.24227068 -0.06442728 0.100029424
000150 4d 75 89 bd 7a 37 2f 3e 5a fc 47 bd 7b 4f 68 3d
       -0.067118265 0.17111006 -0.048824646 0.056716423
000160 83 f4 85 3d 53 bf a4 3e 7c ae a6 3d 71 50 39 bd
       0.065407775 0.3217722 0.08138749 -0.04524273
000170 19 a4 90 bf 58 04 9b 3b 9f ee aa 3d cc 5f 47 3d
       -1.1300079 0.0047307424 0.083462946 0.048675343
000180 7d 69 7c bd 0e 54 24 bd 0c bc f5 bc 37 9c 82 3f
       -0.06162404 -0.040119223 -0.029996894 1.0203923
000190 f6 8f 8c be 0f 55 a4 bf 83 99 a9 40 a2 46 7b be
       -0.27453583 -1.2838458 5.299989 -0.24538663
0001a0 aa 70 8c be 98 33 c3 3f 8b da 0f bd 12 6c d3 3e
       -0.27429706 1.525012 -0.03512053 0.4129339
0001b0 cb ce 38 bd e1 e8 af 3c 3f 00 37 bd ba 0d 04 bd
       -0.04511909 0.02147335 -0.04467797 -0.032239653
0001c0 ce 0b ac bf d5 17 3f 3f d3 2a a9 3f 09 00 10 bd
       -1.3441103 0.7464574 1.3216194 -0.035156284
0001d0 d9 6c cd 3e 3a 9f 84 3e 60 34 fc bd cc 96 01 3d
       0.40122107 0.2590273 -0.12314677 0.03163795
0001e0 ff 29 42 bc 4a 2c 28 3b 61 14 ef bd ad a3 0d 3e
       -0.011850833 0.0025661164 -0.11673809 0.13831969
0001f0 36 f9 78 3d 06 65 30 3f ff e5 92 bc e8 75 2a bf
       0.06078454 0.6890415 -0.017931936 -0.6658616
000200 60 a2 85 3b 91 77 a2 bb b8 8f 6f bd df f0 f9 be
       0.0040781945 -0.004958101 -0.05848667 -0.48816583
000210 ac 3d cd be 27 84 80 3f 79 96 48 3f ae 5e 0a 40
       -0.40086114 1.004033 0.78354603 2.1620288
000220 40 c7 25 40 8c 57 d8 3f a0 19 9d 3d d2 d9 70 3e
       2.5902863 1.6901717 0.07670903 0.23520592
000230 05 5b ff 3f ad 05 99 3f 41 c5 30 bf 9c a7 55 3d
       1.9949652 1.1954857 -0.69050986 0.052161798
000240 a2 cb f6 3e e0 94 ac bf c2 92 fa 3e ff 1c d9 be
       0.48202235 -1.3482933 0.48940092 -0.42404935
000250 5a 68 8d bf 82 7f 0c 3f 6f 13 01 3f 74 b6 07 bf
       -1.104747 0.5488206 0.5042028 -0.53012776
000260 4e 3e 98 3d 2a 17 78 3e 65 22 b0 bd 8f 77 0d bf
       0.07433759 0.24227586 -0.0860031 -0.55260557
000270 4b f6 5d bf 18 d8 68 3f 12 51 05 3f 66 2e 5f bd
       -0.8670394 0.9095473 0.5207683 -0.05448761
000280 bc c4 db 3e 90 ca 48 bd 4e c4 58 3d ca c3 1d 3d
       0.42923534 -0.049021304 0.052921586 0.038516797
000290 7a 8e a1 c0 82 73 d1 3e 84 4a bb bf 64 1d 27 3f
       -5.048642 0.40908438 -1.4632115 0.6527922
0002a0 59 10 54 c0 46 36 06 40 7c f4 0f 40 19 b7 67 c0
       -3.3134978 2.0970626 2.2492971 -3.6205504
0002b0 8c 45 82 3e e2 03 97 bf 16 25 fb 3e a0 43 57 3e
       0.25443685 -1.179806 0.49051732 0.2102189
0002c0 96 57 77 be 89 dd 72 3e 59 d8 d5 3d b5 26 13 3f
       -0.24154505 0.23717321 0.10441656 0.5748094
0002d0 28 7c d3 be 16 43 fb bd 1d 20 79 3f 8a 57 24 c0
       -0.4130566 -0.12268655 0.97314626 -2.567843
0002e0 b3 7a 23 bf 1a 6b b1 bd 88 92 64 bc 08 86 ff bd
       -0.638591 -0.08663006 -0.013950951 -0.12476736
0002f0 15 5a 43 3e 88 ac fa 3e b7 c4 5e 3e e9 a0 19 3e
       0.19077332 0.48959756 0.21754728 0.15002789
000300 93 68 6a bd fd e4 58 3f 22 e1 06 3d 39 28 8e 3c
       -0.057228636 0.8472441 0.032929547 0.017353164
000310 74 c7 32 bd b3 b2 7c c0 73 6d 08 40 75 1a 05 c0
       -0.043647245 -3.948407 2.1316803 -2.0797398
000320 9f 60 05 c0 f1 a3 35 3e c3 07 07 40 f2 30 00 3f
       -2.0840223 0.1773832 2.1098487 0.50074685
000330 dc 01 04 bf 0c f9 85 be 0f df fa 3e 23 3e d0 bc
       -0.5156534 -0.2616657 0.48998305 -0.025420254
000340 26 9c 22 3f 20 d7 b1 be 4f 57 70 be fc 31 fa be
       0.63519514 -0.3473444 -0.23470806 -0.4886626
000350 d8 0f 6b 3f 53 fd 9f 3f b6 7f 16 bf 1e c3 b1 be
       0.9182105 1.2499183 -0.5878862 -0.34719175
000360 1c 00 a2 3e 12 bb 2c bf 77 05 88 3e b1 1a fe be
       0.31640708 -0.67472947 0.2656667 -0.4962974
000370 51 f0 1f be c1 0e 01 bf c0 03 eb 3d 31 24 89 3e
       -0.15619017 -0.5041314 0.11475325 0.26785424
000380 1e f0 29 bf c8 7b 5c bd ac c3 d4 bd 80 ca f2 bc
       -0.66382015 -0.053828984 -0.10388884 -0.029637575
000390 1c 69 65 bd f8 f6 41 bd 5b c2 93 3f 01 1c 08 40
       -0.056008443 -0.04735467 1.1543688 2.1267092
0003a0 ae 27 41 bf 79 f1 d7 bf d5 f3 59 bf 5d a2 13 bf
       -0.7545117 -1.6870567 -0.85137683 -0.5766962
0003b0 2b f9 23 3f 63 bf a6 bf c8 5f ad 3e 0f 3e 8b 3f
       0.64052075 -1.3027157 0.33862138 1.0878314
0003c0 3c 4e 20 3e c5 e2 13 3e 60 81 35 bf 68 16 ee 3e
       0.15654844 0.14441974 -0.70900536 0.4650147
0003d0 25 b6 dc be 1a 5d 83 3f 3c 43 96 bd c6 1d ce 3f
       -0.43107715 1.0262787 -0.07337043 1.6102836
0003e0 10 25 fd 3f 06 7c 18 3f db 52 1b bf 2d b9 d2 3d
       1.9776936 0.59564245 -0.606733 0.10289226
0003f0 d3 58 19 3f 98 2b a5 3e 02 29 4a 3d ab 8d 1e 3f
       0.5990116 0.32259822 0.049355514 0.6193492

fcs1.bias f4 [256]
000000 58 84 2b be d5 7d 2b be 31 48 2a 3e 45 0c 0d 3d
       -0.16749704 -0.1674722 0.16629101 0.03443553
000010 21 bc 74 bd 76 3e 1e 3e 36 3d eb bc 8a da 9d 3c
       -0.059749726 0.15453514 -0.028715711 0.019269247
000020 93 5d 31 be e9 6f 23 be c1 46 2f be 3c f1 78 3d
       -0.17320852 -0.15960659 -0.17116834 0.060776934
000030 27 3d ef 3d 03 42 c7 bd 2f 31 9d 3d 38 f2 2f 3e
       0.11681586 -0.097293876 0.07675397 0.17182243
000040 e3 41 2b 3d 8f a4 e5 3b 96 ed 33 bd ff 3b ef 3c
       0.04181088 0.0070081423 -0.04392775 0.029203413
000050 b4 e7 07 3e db 10 e4 3d ac b4 2d be ea 9f 88 3d
       0.13271981 0.111360274 -0.16963452 0.06671126
000060 1a fe b6 bd 7b 14 0b 3e 56 34 fa bd be 1b 2b be
       -0.08935185 0.13582031 -0.122170135 -0.16709802
000070 13 e7 b7 3d fc 3f 6a bd 6f 20 af 3a 8a 8d a1 bc
       0.08979621 -0.057189927 0.0013361106 -0.019720811
000080 de 5a 8f 3c 5a 7a 53 bd 78 49 ee 3c 1a b9 a4 bd
       0.017499384 -0.051630355 0.029087767 -0.08043118
000090 e3 6c e7 3d 1c ff 8d 3d 0a dc cd bd 05 40 13 bd
       0.11300065 0.06933424 -0.10051735 -0.035949726
0000a0 ed 1e b2 b9 18 ec 61 bb 3e 3f 0b 3e 47 9e 87 bd
       -0.00033973847 -0.0034472998 0.13598344 -0.06621986
0000b0 13 b1 ab 3d 75 b0 fc bd a2 e2 b9 39 08 da e7 bd
       0.083833836 -0.12338344 0.00035454804 -0.11320883
0000c0 7b 28 fc bc 41 03 7d 3d eb 42 1f bd 42 67 13 3e
       -0.030781021 0.06177068 -0.038882177 0.14394858
0000d0 2c 4f 15 bd 62 4d ba 3d 87 ff 77 bc ea 66 01 be
       -0.036452457 0.09096791 -0.015136606 -0.12636915
0000e0 17 c7 32 3d 40 28 80 bd 53 48 b6 3d 73 fc 67 bd
       0.043646898 -0.06257677 0.089005135 -0.05663724
0000f0 d2 dc 03 be 29 38 1f 3e d9 3d 31 be 73 e8 dc 3c
       -0.12877205 0.15548767 -0.1730875 0.02696631
000100 24 b2 2c 3e ab d2 e7 bd 5e 59 2e be 90 09 fa 3d
       0.1686483 -0.113194786 -0.17026278 0.12208855
000110 7c 83 a9 3c 16 d7 ef 3d 52 b3 17 3d e8 41 7d 3b
       0.02069258 0.11710946 0.037036248 0.003864402
000120 a5 e7 7c 3d 7b 47 2f be 5f 83 97 3d c8 cf 8f bd
       0.06174435 -0.17117111 0.07398104 -0.07022053
000130 c8 d5 da bd 5b 35 41 3d b3 d2 b0 3b b4 b9 18 3e
       -0.10685307 0.047170024 0.005396211 0.1491459
000140 27 19 cb bd 84 61 14 be 02 06 9a 3c 56 cc 7e 3c
       -0.09916907 -0.14490324 0.018801693 0.015551647
000150 4c df bb bd 05 f3 7f bd b6 d1 0e 3e b9 19 12 3e
       -0.0917345 -0.06248762 0.13947186 0.14267625
000160 10 6b a9 bd c6 b3 3d bd a7 f0 53 bd e1 49 8d bd
       -0.08272374 -0.046314023 -0.051743176 -0.06898857
000170 a0 68 38 bc 6e 12 53 3d 66 35 c6 bd 54 1d fe bc
       -0.011255413 0.051531248 -0.09678154 -0.031019844
000180 49 73 22 be 11 d8 df 3d bb 5b 3a bd 50 14 e7 bd
       -0.1586429 0.10929883 -0.045497637 -0.11283171
000190 32 f9 28 3e 45 f3 72 3d c5 0b c3 3d 8f fe f1 3d
       0.1650131 0.05931403 0.09523729 0.11816131
0001a0 78 e4 6b 3d 66 40 bd bd f7 52 25 be 63 38 8a bd
       0.05759093 -0.09240799 -0.1614493 -0.06749036
0001b0 de de 47 bd 99 8e 0c bd b2 5a c7 3d c7 d7 28 be
       -0.048796527 -0.03431568 0.09734096 -0.16488563
0001c0 52 7c b4 3d 9b b9 c3 3d 79 7f 85 3c dd eb 0d bd
       0.08812775 0.09556886 0.016296135 -0.034648765
0001d0 e4 33 cb 3d 97 02 ea bd 4c cc 4a bc 84 a6 61 3d
       0.09922007 -0.11426275 -0.01237781 0.055090442
0001e0 94 57 27 3d 6b 91 00 3c 00 80 2c 3d a2 a9 0f be
       0.040855005 0.00784717 0.042114258 -0.14029554
0001f0 54 c3 cd 3d b7 5d 0a be 5a 24 87 3d de 11 bf bc
       0.100470215 -0.13512312 0.065987304 -0.02332395
000200 42 75 a1 bd d8 41 d1 3b 98 51 22 bd 75 e5 21 3e
       -0.07883693 0.006386023 -0.039628595 0.15810187
000210 76 08 14 3e 11 bb 88 3d 4c a6 e9 bb db dc 0f 3e
       0.14456353 0.06676305 -0.00713042 0.14049093
000220 62 c4 19 be 85 19 21 3e 03 73 96 3d 31 0e f2 3d
       -0.1501632 0.15732391 0.073461555 0.11819113
000230 1c 01 24 3e 70 4c 68 3c a3 c7 47 3d b0 5f b6 3d
       0.16016048 0.01417838 0.048774373 0.0890497
000240 e6 e4 f1 bd b6 b9 2e 3e 8c 7d 20 bc 33 05 80 3d
       -0.11811237 0.1706303 -0.009795558 0.06250992
000250 18 cc e7 bd a4 a5 1d 3e 58 a1 06 3d c0 ca 0a be
       -0.11318225 0.15395218 0.032868713 -0.13553905
000260 ad b1 f2 3d cc 71 71 3d 7e fb ad 3d 8f 01 87 bc
       0.11850295 0.058946416 0.08495234 -0.016480235
000270 f3 9e fc 3c a3 19 f2 bd 6e 20 1a 3e 0c 29 fd 3d
       0.030837512 -0.11821296 0.15051433 0.12361345
000280 d5 f3 3a bc 86 be 1b be d2 f7 ef bd 60 91 ad bd
       -0.011410673 -0.15209398 -0.1171719 -0.08474994
000290 52 f5 e9 3d 8c 42 e5 bd fe 80 ab bd 97 af 93 bd
       0.11423744 -0.111943334 -0.08374213 -0.072112255
0002a0 f5 00 0d be 18 a0 89 3d 98 27 6e 3d b7 17 1a be
       -0.13769896 0.067199886 0.05814323 -0.15048109
0002b0 8a 80 02 3e 82 d4 dd 3b c7 ee d2 bd 14 52 2d 3c
       0.12744346 0.0067697177 -0.102994494 0.010578651
0002c0 28 1a 1d 3d 32 33 5b 3d 96 e1 cc bd ef cc 2f 3e
       0.038355023 0.05351562 -0.100039646 0.1716802
0002d0 49 14 0c 3e ce 4c 1e 3e f7 d5 06 bc 65 07 2a bb
       0.13679613 0.15458986 -0.008229724 -0.002594435
0002e0 0a b4 09 be 13 59 25 3e 84 bf dd bc 02 35 3a bd
       -0.13447586 0.1614726 -0.02706886 -0.04546071
0002f0 81 3d 39 bd af 32 e8 bd f9 f8 13 be d1 b4 c6 bb
       -0.04522467 -0.11337792 -0.14450444 -0.0060640355
000300 ed df 11 be e6 ac b9 bd ab ed e4 3d d5 7e 8b 3d
       -0.14245577 -0.09066181 0.11178144 0.06811301
000310 76 bc 02 be 1b 85 ee bc 52 a0 93 bd 0f b2 76 3d
       -0.12767205 -0.029116204 -0.07208313 0.060228404
000320 3f 44 75 bc 78 cf 90 3d 59 46 32 3d d5 32 17 3d
       -0.014969884 0.070708215 0.04352412 0.03691371
000330 71 44 eb 3d 95 1f 83 3d b9 46 2f be b1 20 1a 3e
       0.114876635 0.06402508 -0.17116822 0.15051533
000340 91 40 0e be cc fb d2 3d cd ac 82 bc 44 dd ad 3d
       -0.13891818 0.10301933 -0.015951538 0.08489469
000350 19 11 8b bd 58 24 a1 bc bb 78 3b bd 15 40 24 3e
       -0.067903705 -0.01967065 -0.045769434 0.1604007
000360 14 e4 d2 bd 28 fd dd 3d 74 78 18 be 14 71 6a 3d
       -0.10297409 0.10839301 -0.14889699 0.057236746
000370 f9 77 15 be ed 9b c4 bd 1f 89 bf 3d 48 f1 e3 3d
       -0.14596547 -0.09600053 0.09352326 0.11130005
000380 78 59 c8 bc 54 72 0f be 25 81 09 be c2 69 08 3d
       -0.024456725 -0.14008456 -0.13428171 0.033303984
000390 05 93 cb 3d 58 2a 8e 3d ad 0c 2e be 66 b2 a6 bd
       0.09940151 0.0694167 -0.16997023 -0.081394956
0003a0 79 8e 8e 3d 66 e5 fa 3d 36 16 b3 3d 96 f7 27 bd
       0.06960768 0.122507855 0.08744471 -0.0410076
0003b0 82 a5 af bc f4 52 6c bd 74 89 79 bd 9d e0 fd bc
       -0.021441225 -0.057696298 -0.0609221 -0.030990893
0003c0 80 b7 67 3d a8 15 c8 bb e3 97 23 3d bb ae 88 bc
       0.056571484 -0.0061060973 0.039939772 -0.01668488
0003d0 35 8c bf 3d d6 6b 8a bd 8b 05 9e 3c c0 c9 0c bc
       0.09352914 -0.06758849 0.019289752 -0.008593023
0003e0 f1 c3 f3 bd a3 12 ca b9 fe 58 19 3d 57 62 f5 3c
       -0.11902607 -0.00038542328 0.037438385 0.029954119
0003f0 96 9f 1b 3d fe f2 b1 bd 36 df 06 be 02 00 75 3d
       0.03799399 -0.08688925 -0.13171086 0.05981446

b1.weight f4 [256]
000000 0f 68 61 3e 4f 45 a6 3e db 67 b3 3e 3a e3 d2 3e
       0.22012351 0.32474753 0.35040173 0.41188985
000010 1f c5 0d 3f c6 64 20 3f ba af bd 3e e8 d9 b9 3e
       0.5537891 0.6265377 0.3704813 0.36299062
000020 68 7d 32 3f 00 6c 1f 3f a4 6b f2 3e 1a 02 38 3f
       0.69722605 0.6227417 0.47347748 0.71878207
000030 71 9e e2 3e 06 45 1d 3f 6a 13 c0 3e 91 9b 08 3f
       0.44261506 0.61433446 0.37514812 0.53362375
000040 0c 8b e3 3e 4f 4d b3 3e e2 f9 88 3e a5 bf 2c 3f
       0.44442022 0.3501992 0.26753145 0.67479926
000050 5c 7c b9 3e 7d da 27 3f 82 fb ed 3b 82 76 c1 39
       0.3622769 0.6556776 0.007262648 0.00036900124
000060 d4 99 da 3e fa de 3c 3f 65 1c b4 3e 7a 9f a9 3e
       0.42695487 0.73777735 0.35177913 0.33129483
000070 94 e8 cd 3e 6f b6 0f 3f 70 31 10 3f 45 e9 04 3f
       0.40216506 0.56137747 0.56325436 0.5191844
000080 09 a6 19 3f 48 b3 06 3f 34 ae 03 3f 8c 25 d1 3e
       0.60018975 0.5261731 0.5143769 0.40848958
000090 5f cb f7 3e 99 70 ac 3e 2d 79 f7 3e 2f 0a 3a 3f
       0.48397347 0.33679655 0.48334637 0.7267179
0000a0 26 5e d6 3e 32 2f 2e 3f 2a 5b 32 3f b1 a4 0a 3f
       0.41868705 0.68040764 0.69670355 0.5415755
0000b0 32 56 05 3f 89 e2 fd 3e bb ef da 3e b6 fc 7d 3e
       0.5208465 0.49586895 0.42761025 0.24803433
0000c0 10 0b cd 3e 63 0e db 3e d4 0d 15 3f 8d 28 21 3f
       0.40047503 0.42784414 0.58224225 0.629525
0000d0 ae d4 67 38 aa 88 94 3e ee 29 b5 3e d1 ea 48 3f
       5.5272765e-05 0.29010516 0.35383552 0.784833
0000e0 7e 16 9f 3e 22 01 9b 3e a5 87 29 3f dd 7e 3d 3f
       0.31071848 0.30274302 0.662226 0.74021703
0000f0 d2 68 ec 3e 6d 53 aa 3e 3c ea ac 3e dd 2a 26 3f
       0.46173722 0.33266774 0.33772457 0.64909154
000100 a7 12 ef 3e 50 f0 82 3e 39 02 e2 3e 6b d5 0e 3f
       0.46693918 0.2557397 0.4414232 0.557944
000110 7f 2f 95 3e b0 3d f4 3d 8b eb d3 3e 4d 18 a9 3e
       0.291378 0.119258285 0.41390643 0.33026353
000120 68 5b c2 3e cf 62 c8 3e 36 e5 c3 3e a0 c4 05 3f
       0.37960362 0.39137885 0.38260812 0.5225315
000130 64 d0 0f 3b 60 0c b2 3e 7e e1 0b 3f 92 ad 05 3f
       0.002194428 0.34775066 0.5464095 0.5221797
000140 43 85 d3 3e a6 47 22 3f 06 29 87 3e b7 9e eb 3e
       0.41312608 0.63390577 0.26398486 0.46019527
000150 65 65 06 3f 8c 01 c7 3e 87 70 8b 3e e9 36 d8 3e
       0.52498466 0.38868368 0.2723429 0.42229393
000160 4c 5f fb 3e 61 c5 02 3f 9e 3b 1f 3f 9d 73 3c 3f
       0.49096143 0.51082426 0.62200344 0.7361391
000170 65 b9 04 3f 7e 13 39 3e bd d3 06 3e 17 45 12 3f
       0.5184539 0.18073842 0.13166709 0.5713667
000180 5a f7 1a 3f d7 a5 07 3f d9 f3 0f 3f 85 08 e0 3e
       0.6053368 0.52987427 0.56231457 0.437565
000190 35 8e 03 3f b8 7e ac 3e 7e 68 a8 3e 21 9f dd 3e
       0.51388866 0.3369043 0.3289222 0.43285468
0001a0 a1 df 81 3e ea f9 95 3e fe 38 14 3f d4 02 b4 3e
       0.25365928 0.29292232 0.57899463 0.35158408
0001b0 fe 94 14 3f 47 65 aa 3e bb 9d e5 3e ac c3 08 3f
       0.58039844 0.33280393 0.448469 0.5342357
0001c0 84 b4 55 3e 8c a0 be 3e 94 34 cf 3e 98 cb 8f 3e
       0.20869642 0.37231863 0.404698 0.28085017
0001d0 f4 30 c2 3e 69 7f 1e 3f 12 45 d2 3e d4 b9 47 bb
       0.37927973 0.6191316 0.4106832 -0.0030475752
0001e0 ce af fa 3e 47 de 0d 3f 4e fe 0d 3f 01 14 3e 3f
       0.48962253 0.55417293 0.55466163 0.74249274
0001f0 78 36 cc 3e 2a 61 ab 3e 19 9b dd 3e 66 07 63 3e
       0.39885306 0.33472568 0.43282393 0.22170791
000200 51 f1 ff 3e 91 32 c9 3e 71 b5 1b 3f ac cc 80 3e
       0.49988797 0.39296392 0.6082373 0.25156152
000210 a1 5f 01 3f f9 d1 9b 3e 36 de 2a 3f 37 bb cc 3e
       0.50536543 0.30433634 0.66745317 0.39986584
000220 92 5b 1c 3f c5 c0 28 3f f5 fb e6 3e 68 26 b5 3e
       0.61077225 0.6591914 0.45114103 0.35380864
000230 fb 9f ce 3e a9 25 2d 3f 3e 1d 1f 3f bf 49 2b 3f
       0.4035643 0.6763559 0.62153995 0.669094
000240 41 88 f4 3e 71 4f c4 3e 5b 7f a6 3e e3 19 7e 3e
       0.47760203 0.3834186 0.3251904 0.24814562
000250 4e ae 24 bc b9 64 d0 3e 67 94 13 3f 08 9d 92 3e
       -0.010051323 0.40701845 0.5764832 0.2863543
000260 bd ae 02 3f 34 e8 9c 3e b7 73 91 3e 6a 7e 56 3e
       0.5104788 0.30645907 0.28408596 0.2094666
000270 f2 b9 00 3f 20 c7 9a 3e df e3 05 3f 35 d6 73 3c
       0.5028373 0.30230045 0.5230083 0.014882614
000280 61 c6 a3 3e cc be c2 3e c4 87 d8 3e 51 39 9c 3e
       0.3198729 0.3803619 0.4229108 0.3051248
000290 bb 92 1d 3f 13 8e 9f 3e 25 b8 df 3e a4 ad 03 3f
       0.6155202 0.31163082 0.4369518 0.5143683
0002a0 43 a0 89 3e 1b 85 9d 3e 5b 46 fa 3e 37 58 02 3f
       0.26880082 0.30765614 0.48881802 0.50915855
0002b0 5c 09 0a 3f ec da 9e 3e 64 6e e5 3e 99 54 0c 3f
       0.5392053 0.310264 0.44810784 0.54816586
0002c0 a8 43 b1 3e e6 dc b9 3e 29 50 ca 3e 15 e4 12 3f
       0.3462193 0.36301345 0.39514282 0.57379276
0002d0 4f ea 0b 3f 9b 88 e6 3e e7 45 a0 3e 8c e6 97 3e
       0.546544 0.45026097 0.3130333 0.2966808
0002e0 ae 95 03 3f b7 9b 11 3f ce a2 ce 3e 12 31 db 3e
       0.5140027 0.56878227 0.40358585 0.42810875
0002f0 23 1f 16 3f f0 fe 98 3e 42 5f 16 3f b3 e0 2a 3f
       0.5864126 0.29882002 0.587391 0.66749114
000300 b5 47 53 3e d6 e4 cf 3e a1 d8 e7 3e d1 87 c0 3e
       0.20632823 0.40604275 0.45282462 0.3760362
000310 91 ed b0 3e a6 fe ce 3e 79 db 23 3f c4 ea 3c 3e
       0.3455625 0.40428656 0.64006764 0.18448931
000320 90 2a 03 3f 35 fb a6 3e ff 72 00 3f 9f e2 be 3e
       0.5123682 0.3261353 0.5017547 0.37282273
000330 58 31 f2 3e 51 af ce 3e 8f 71 a1 3e 12 77 89 3e
       0.4730327 0.4036813 0.3153195 0.26848656
000340 e5 1a cf 3e 93 ab 1b 3f 76 13 6d 3f d2 e0 7e 3e
       0.40450206 0.60808676 0.9260782 0.2489045
000350 88 19 2e 3f 4c c4 0c 3f 02 2c c8 3e ad 49 0b 3f
       0.6800771 0.54987025 0.39096075 0.54409295
000360 5f 6c 4e 3f fc 28 1f 3f 65 54 2a 3f b5 0d fc 3e
       0.8063411 0.6217191 0.66535026 0.49229208
000370 7f d5 11 3f 7b 2e fe 3e 7a d3 b1 3e 48 a5 2e 3f
       0.56966394 0.49644837 0.34731656 0.6822095
000380 88 19 82 ba e9 4a d7 3e ae 0e 9c 3e de eb fb 3e
       -0.0009925822 0.4204934 0.3047995 0.4920339
000390 84 57 40 3f 04 3c 7f 3e 5d 06 c8 3e f5 24 28 3f
       0.7513354 0.24925238 0.39067355 0.6568139
0003a0 45 98 9a 3e 21 68 04 3f 78 a5 c9 3e e1 b7 98 3e
       0.30194297 0.5172139 0.39384055 0.29827788
0003b0 78 0b cd 3e 7b 1e d6 3e 05 63 0b 3f 67 34 9b 3e
       0.40047812 0.4182013 0.54447967 0.30313417
0003c0 10 e3 19 3f 9a 13 11 3f c7 a9 a8 3e 97 60 d8 3e
       0.60112095 0.56670535 0.3294203 0.42261192
0003d0 51 a6 a1 3e 0a 65 04 bc 0e 5b 80 3e 5b a9 d3 3e
       0.31572202 -0.00808073 0.2506947 0.41340145
0003e0 cd 8d 02 3f 92 23 05 3f dd a8 2e 3f f2 47 85 3e
       0.5099762 0.520074 0.68226415 0.26031452
0003f0 f6 e2 b9 3e 00 bb 0e 3f 6c 59 06 3f e3 16 0a 3f
       0.3630597 0.5575409 0.52480197 0.5394117

b1.bias f4 [256]
000000 d3 3b 00 be ff 75 96 bc e5 22 a5 3c 01 b9 71 be
       -0.12522821 -0.018366812 0.02015824 -0.2360573
000010 ff 2d 2f bf 91 a1 62 bf 30 13 07 be b7 21 5f bd
       -0.6842956 -0.8852778 -0.13190913 -0.054475512
000020 cb 36 37 bf 32 d9 25 bf df 2e 19 bf db d3 75 bf
       -0.7156798 -0.6478454 -0.59837145 -0.9602639
000030 73 15 a8 be 17 a6 4e bf 76 d9 cd be 8b 85 c0 be
       -0.32828864 -0.80722183 -0.40204972 -0.37601885
000040 b0 99 6f 3d c7 6e b4 be 16 12 bf bd 68 40 45 bf
       0.058496177 -0.35240766 -0.093296215 -0.770514
000050 5f 92 af be 94 60 66 bf 63 e7 e4 bd e7 a6 12 bc
       -0.3429136 -0.89991117 -0.11176946 -0.008950925
000060 8b 37 6b bf d8 cb 3d bf 58 f4 68 bd 74 b7 99 be
       -0.91881627 -0.74139166 -0.05687365 -0.30022776
000070 9c 76 85 bd 02 f0 06 bf 21 4b 20 bf 81 5a 2a bf
       -0.065167636 -0.5270997 -0.6261464 -0.6654435
000080 2f a8 27 bf 64 57 09 bf 36 87 25 bf e3 9e a9 be
       -0.65491 -0.5364897 -0.6465944 -0.33129033
000090 f1 24 a6 be bc d7 89 be 0d 00 0a bf b2 e3 78 bf
       -0.3245006 -0.26922405 -0.5390633 -0.97222435
0000a0 a7 f9 1e bf 33 1c 17 bf 13 91 2b bf 79 a3 78 bf
       -0.6209969 -0.59027404 -0.6701824 -0.9712444
0000b0 47 72 c6 bc 0f 72 15 bf 12 58 33 bf 50 fd 12 bd
       -0.024224414 -0.58377165 -0.7005626 -0.03588611
0000c0 08 50 ac be 9b 7c 24 bf c0 4d 2a bf b1 57 30 bf
       -0.3365481 -0.6425263 -0.6652489 -0.68883806
0000d0 84 b2 17 bd ad 18 89 be d6 22 a8 be 00 ab 84 bf
       -0.03703548 -0.2677664 -0.32839078 -1.0364685
0000e0 f2 43 be be 70 1a 97 39 7d a5 30 bf 61 11 82 bf
       -0.37161213 0.00028820662 -0.69002515 -1.0161554
0000f0 88 b3 03 bf 61 9e d9 be 21 ba 7c bd db 99 6d bf
       -0.5144582 -0.42503646 -0.061700944 -0.9281289
000100 fd 55 64 be c9 16 27 be 45 26 32 bf 96 93 a5 be
       -0.22298427 -0.16317286 -0.69589645 -0.32339162
000110 c4 bb 86 be c3 0e 28 3e ed 4e ef be 81 ed bd be
       -0.2631513 0.16411881 -0.46739903 -0.37095264
000120 e8 b7 e0 be 12 bd 14 bf 54 97 8d be 25 0a e2 be
       -0.4389031 -0.58101 -0.27654517 -0.44148365
000130 c9 31 d0 bc fd 61 1f be c7 ad 54 bf c0 f5 ea be
       -0.025414364 -0.15564723 -0.83077663 -0.45890617
000140 62 f5 95 be f7 35 61 bf db eb 2f be 0a 65 ef be
       -0.29288775 -0.8797297 -0.17179815 -0.46756774
000150 9d 2b 32 bf 66 85 ba be 31 22 1f be fe f6 07 bf
       -0.695978 -0.364299 -0.15540387 -0.53111255
000160 1e 29 9e be dd ea b4 be fe 52 22 bf a7 6e 47 bf
       -0.30890745 -0.35335436 -0.63407886 -0.7790322
000170 d7 27 74 bf e4 d5 1a bd 05 0b d2 3c 71 8c 6e bf
       -0.9537329 -0.03780164 0.02564002 -0.93183047
000180 d2 bd 23 bf 6b 42 96 be ee cd 2d bf fd bb 29 bf
       -0.6396152 -0.29347548 -0.6789235 -0.6630247
000190 d3 13 f3 be cc 6e a2 bd 49 09 0f 3e 39 f2 1f bf
       -0.47476062 -0.07931289 0.13968386 -0.6247898
0001a0 a3 97 ad bd 05 94 76 bd 89 71 84 bf 1e 87 e6 be
       -0.08476188 -0.060199756 -1.0347148 -0.4502496
0001b0 02 97 87 bf cf 11 33 3d 12 75 e8 be ff c8 da bd
       -1.0592959 0.043718155 -0.45401818 -0.10682868
0001c0 71 4f a2 bd 06 99 73 be 92 70 43 be f4 ae 0e be
       -0.079253085 -0.23788843 -0.19085911 -0.13933927
0001d0 f6 3a 59 bd b4 52 23 bf 62 32 02 bf 0e ab 77 bd
       -0.053034745 -0.6379807 -0.5085813 -0.060465865
0001e0 34 19 7c be 0e 13 19 bf b8 e9 13 bf 29 f1 24 bf
       -0.24618989 -0.597947 -0.577785 -0.6443048
0001f0 4c c4 fd be 38 22 8b be 1c 82 9a be 09 63 05 bd
       -0.49563825 -0.27174544 -0.3017739 -0.03256515
000200 8f 57 d9 be a0 d3 33 bf eb ce 86 bf 79 82 27 be
       -0.42449614 -0.7024479 -1.0531896 -0.16358365
000210 fb a6 da be a7 19 36 3e 66 70 0f bf 68 d2 70 be
       -0.4270552 0.17783223 -0.5603088 -0.23517764
000220 ab 31 8c bf 27 67 2e bf a0 9e a0 be a2 78 7b be
       -1.0952657 -0.6812615 -0.3137102 -0.24557737
000230 2b 33 33 bf 23 3b 3d bf 93 c0 14 bf 8d 8e 6a bf
       -0.6999995 -0.7391836 -0.58106345 -0.91623765
000240 ac 9d 39 bf 36 8b 84 be d3 ea f7 be 12 e8 64 be
       -0.72506213 -0.2588746 -0.48421344 -0.22354153
000250 fc 26 f0 bd 49 ed 99 be 68 cb 29 bf 8d 4a c9 be
       -0.11726186 -0.30063847 -0.66326 -0.3931469
000260 c1 2e 4c bf 1a 67 30 be f4 79 ac bd 03 46 f4 bd
       -0.7975884 -0.1722683 -0.08421698 -0.11927416
000270 a8 55 57 bf dc 49 44 be f2 c4 4c bf 63 c1 fa bd
       -0.84115076 -0.191688 -0.79988015 -0.12243917
000280 eb 06 cc bd c7 c4 d3 be ac 33 35 be a0 f7 e7 be
       -0.09962257 -0.41361067 -0.17695493 -0.4530611
000290 94 d1 ef be 13 e2 8c bc a1 8e 15 bf 23 b2 dd be
       -0.46839583 -0.017197644 -0.5842076 -0.4329997
0002a0 66 fb 54 be 6e bf 92 be 2d bc 11 bf 25 ff 69 bf
       -0.20799026 -0.28661674 -0.5692776 -0.91404945
0002b0 74 ca ff be 3e 16 3d bf fb 82 cd 3c e1 91 2b bf
       -0.49959147 -0.73862064 0.02508687 -0.6701947
0002c0 09 10 01 be 69 cd f9 bd 6e 2f ca be 77 2b de be
       -0.12603773 -0.12197382 -0.3948931 -0.43392536
0002d0 27 13 fa be d3 2f 82 bf aa 3e 3d 3d 95 da 0d 3d
       -0.48842737 -1.0170845 0.04620234 0.034632284
0002e0 83 2f e0 be 0b 4e 23 bf 1f 8d 81 be b5 69 42 bf
       -0.4378625 -0.6379096 -0.2530298 -0.75942546
0002f0 51 03 3b bf 34 85 99 be 54 7d 2c bf 77 b3 5b bf
       -0.73051935 -0.29984438 -0.67378736 -0.85820717
000300 d2 cc 87 3e 14 eb d6 be 53 b6 ba be 6f 2a 96 be
       0.26523453 -0.41976225 -0.36467227 -0.2932925
000310 4f 41 6d be 22 f7 63 be 0d 8d 30 bf 11 8d 37 bd
       -0.23169445 -0.22262242 -0.68965226 -0.044812266
000320 05 a8 1d bf cb 30 f9 be 52 65 2f bf d1 52 be be
       -0.615845 -0.4867004 -0.6851398 -0.3717256
000330 00 68 dc be cd 6f ff be d5 2b fb be 9e fc 81 be
       -0.43048096 -0.49889985 -0.4905688 -0.25388044
000340 4c 3b 35 bf cc 70 2b bf 1e 5d 5f bf 1d 7d 18 be
       -0.70793605 -0.6696899 -0.8725146 -0.14891477
000350 11 64 50 bf 9e a6 c0 be e9 6c 12 be 8f 42 9e be
       -0.8140269 -0.3762712 -0.14299358 -0.30910155
000360 b2 77 6e bf 53 da 61 bf de d1 07 bf 30 44 55 bf
       -0.9315139 -0.8822376 -0.53054607 -0.8330717
000370 96 f8 02 bf 19 96 d4 be 74 96 27 be 0d c9 02 bf
       -0.5116056 -0.41520765 -0.16365987 -0.5108803
000380 b0 79 a6 bc 64 a7 a4 be 00 bf 82 3e dd 4c b5 be
       -0.020321697 -0.3215896 0.25536346 -0.35410205
000390 31 7e 49 bf 0b 37 0c 3d 27 1d 12 bf 7d ab 69 bf
       -0.7870818 0.03423218 -0.5707573 -0.91277295
0003a0 9f 87 19 be 35 69 0d bf 41 4f 49 be 27 dd 1b be
       -0.14993142 -0.5523866 -0.19659139 -0.15221082
0003b0 89 ed 75 be 0a 92 87 be ce fe a5 be a7 c4 3d 3e
       -0.24016394 -0.26478606 -0.32420963 0.18532048
0003c0 c9 7e 48 bf 5f ca e8 be 6b de e8 be 82 fb 12 bf
       -0.7831846 -0.45466897 -0.4548219 -0.5741502
0003d0 3b cf e8 be e3 33 b6 bd e6 d5 3d be 5b 60 54 bf
       -0.45470604 -0.08896615 -0.18538627 -0.82959527
0003e0 a3 1a 9d be 67 75 fe be 43 60 b8 bf 44 ff cd 3c
       -0.30684385 -0.49698946 -1.4404377 0.025146134
0003f0 0f 12 d4 be 57 6f 14 bf f1 9b 20 bf 9d 4d eb bc
       -0.41420028 -0.5798239 -0.6273795 -0.028723532

b1.running_mean f4 [256]
000000 49 13 69 40 20 6c 2f 40 36 ab 2a 3f 5a da 4a 40
       3.641802 2.7409744 0.666675 3.1695771
000010 71 9f 38 c0 1d 67 c0 3d 14 af 61 40 37 83 b0 bf
       -2.8847315 0.09394667 3.526311 -1.3790044
000020 24 d0 ec bf 59 0a 18 c0 b4 10 83 bf b2 49 2c c0
       -1.850102 -2.3756316 -1.0239472 -2.691998
000030 1c 17 1f c0 74 bd f3 c0 31 fd 40 be 7c a4 a0 3f
       -2.4857855 -7.6168766 -0.18846585 1.2550197
000040 f1 13 81 40 55 bc 66 3f 94 d4 e3 be 1d df 6a c0
       4.0336843 0.9013112 -0.44498122 -3.6698678
000050 bd 62 4c 40 72 27 f0 bf 39 7e 1e bf a3 4f 15 be
       3.1935265 -1.8762038 -0.6191135 -0.1458116
000060 70 4a 13 c0 c2 ec 74 40 c6 f1 32 3f 73 0e 46 c0
       -2.3014183 3.8269506 0.69900167 -3.094632
000070 15 dc 64 40 3a 8b 21 40 4b c2 21 c0 1e e3 41 c0
       3.5759327 2.5241227 -2.5274837 -3.0294871
000080 2d 1b 84 3f 14 66 34 bf 11 6a fa bf d8 3c a3 bf
       1.0320793 -0.7046826 -1.9563619 -1.2752943
000090 c3 18 ba 3f dd 6c 66 3f 63 e8 a3 bf 6c c7 34 bf
       1.4538807 0.9000986 -1.2805294 -0.70616794
0000a0 17 b9 50 3e a1 1b 8c 3e b0 9a 27 3f 8e 98 0f c1
       0.20383106 0.2736483 0.6547041 -8.974745
0000b0 1b 6d fa 3f 29 53 ae 3f 85 92 43 40 59 55 87 40
       1.9564546 1.3619128 3.0558178 4.2291684
0000c0 a3 7d 35 c0 e8 94 ea bd 7f ae ed 3e f5 e6 4d 40
       -2.8357933 -0.11454183 0.46422192 3.2172215
0000d0 40 8b 57 be b2 11 7b bf 5e 68 90 c0 75 55 ac c0
       -0.21049213 -0.98073876 -4.51274 -5.385432
0000e0 cc 73 71 c0 e4 28 c9 40 ab 0d f8 bf 7f f6 25 40
       -3.7726927 6.2862415 -1.9379171 2.59317
0000f0 da 34 c0 c0 17 4f 47 c0 5d 47 bd 40 b5 7a 23 c1
       -6.0064516 -3.1142023 5.9149613 -10.217458
000100 e3 26 14 40 58 67 bc 3f f1 85 c0 bf fb 6c f0 3d
       2.3148735 1.4719038 -1.5040876 0.117395364
000110 3c 32 5a 3f 9e 70 76 40 f3 6c a0 3f 1d 81 79 bf
       0.852329 3.8506236 1.2533249 -0.97462636
000120 63 26 76 bf 60 67 a8 c0 37 9b ba 40 35 ab ac bd
       -0.96152323 -5.262619 5.831447 -0.08431093
000130 af 6d f1 3d 02 e7 5c c0 9d 82 f7 40 ac 86 a0 3f
       0.117884986 -3.4515996 7.734694 1.2541099
000140 db ec c0 3f 32 da dd bf cd 08 40 40 0e e1 f9 be
       1.5072283 -1.7332213 3.0005372 -0.48804516
000150 57 95 cb be 9f f1 17 be cf 75 24 41 30 0b 18 c0
       -0.39762375 -0.14838265 10.278762 -2.3756828
000160 6f 0d de c0 a8 2f f8 be ab 2f 1c be 2d d2 c7 bf
       -6.93914 -0.4847386 -0.15252559 -1.5611016
000170 2e 60 36 c0 5e 03 c0 40 fd cf 64 40 c5 69 1d bf
       -2.8496203 6.000411 3.5751946 -0.61489516
000180 09 7f 81 40 5c 0f 59 40 96 fd c1 bf a2 3d 23 c0
       4.046757 3.3915625 -1.5155513 -2.5506368
000190 0d d0 90 3d 54 86 3f 40 8b 88 34 40 f3 99 35 3d
       0.070709325 2.9925737 2.820834 0.04433627
0001a0 4a a8 4d 40 9f 8e 28 40 a3 eb d5 c0 85 79 32 c0
       3.2133965 2.633705 -6.6850142 -2.788667
0001b0 dd b6 33 40 07 4f c3 bf 66 c8 82 be 78 3a b4 be
       2.808036 -1.5258492 -0.25543517 -0.35200858
0001c0 32 0e 37 c0 31 a5 ec 3e 91 88 ba 40 b6 ed 00 40
       -2.8602414 0.4621978 5.8291707 2.0145087
0001d0 cd f8 6a 3f 34 5e 30 c0 e0 9c 43 c1 d4 1b 2b 3f
       0.9178589 -2.7557497 -12.2258 0.6683934
0001e0 14 a5 8b 3e 65 74 0f c0 78 bf cb bf cb bf 4b 3d
       0.27274382 -2.2414792 -1.5917807 0.049743455
0001f0 bb d7 97 3f af 8f 4a bf af 90 82 40 42 42 06 bf
       1.1862711 -0.79125494 4.0801616 -0.5244485
000200 aa 63 02 c0 c9 6f 83 c0 61 3b 0d c0 9a 20 8d 40
       -2.037333 -4.1073956 -2.2067492 4.4102297
000210 95 ff 07 c0 7e 5c 76 3f 39 7a 94 be b0 8b 45 40
       -2.1249745 0.9623488 -0.28999498 3.0866508
000220 2a c4 b6 c0 cd 44 b3 bf 10 3d f7 3f f4 e9 58 c0
       -5.711446 -1.4005371 1.931551 -3.3892794
000230 33 d5 c9 bf 27 35 cd bd 5d 93 85 be 43 ad 00 41
       -1.5768188 -0.10019904 -0.26088992 8.0423
000240 87 3a 2b bf 24 b3 2b bf 9b 8d 8f c0 18 d5 31 c1
       -0.6688618 -0.6707022 -4.486036 -11.114525
000250 21 bc 81 bb 0d 01 91 3f 69 d9 1b c0 78 93 1f c0
       -0.0039591943 1.1328446 -2.4351447 -2.4933758
000260 9f ec 94 bf 80 c9 98 3f 23 09 a6 be 20 f8 15 c0
       -1.1634711 1.1936493 -0.32428846 -2.3432693
000270 1f 7e eb 3e f7 6f 8f bf 01 ba ac c0 b2 b2 06 ba
       0.4599466 -1.1206044 -5.3977056 -0.0005138322
000280 f2 40 27 3f d7 78 55 c0 25 dc d9 3f 90 ed 3b 40
       0.65333474 -3.3355005 1.7020308 2.9363747
000290 22 f5 bc 3f 65 08 95 3d 76 a9 81 c0 bc c9 58 bf
       1.4762309 0.07276992 -4.051936 -0.8468282
0002a0 da 67 55 40 09 7e 8e 3f 9f bc f2 40 58 bf 95 c0
       3.3344636 1.1132213 7.585525 -4.6796074
0002b0 4c b6 c4 3f 4f 2a df bf 0a 1a 6e bf 86 7b 19 c0
       1.5368133 -1.7434787 -0.9300848 -2.3981643
0002c0 97 bf 9b bf 3a 41 98 bf ca 49 82 c0 94 22 5b 40
       -1.2167844 -1.1894906 -4.0715075 3.4239855
0002d0 95 e3 f9 3f 34 fe 8d be 3c 2e 88 40 60 85 bd 3f
       1.9522578 -0.27733004 4.255644 1.4806328
0002e0 de 2f bd 40 45 27 04 c0 32 d2 83 40 ab a8 06 c0
       5.912093 -2.0648968 4.1194086 -2.1040447
0002f0 a7 f2 bd 3e d8 9c 88 c0 e7 dc 8d c0 5e 27 fb bf
       0.37099192 -4.269146 -4.4332156 -1.9621389
000300 77 89 8e 3f 05 9f 0d c0 a5 22 3b 40 20 fd 8c c0
       1.1135701 -2.2128308 2.9239895 -4.405899
000310 df 4b 50 3f 6d 70 90 3e 7b 43 92 be f7 6c 19 c0
       0.8136577 0.28210774 -0.2856711 -2.3972757
000320 8f 3b e0 bf a1 1c ec bf c8 32 7a 3f 95 94 7a 3f
       -1.7518176 -1.8446237 0.97733736 0.9788297
000330 ae 8f 88 c0 8f e9 6f 40 03 f7 6f bf ad c6 82 c0
       -4.267539 3.7486303 -0.93736285 -4.0867524
000340 cb a9 a9 c0 2b 65 91 3f ef 08 6f 3f 51 70 13 40
       -5.3019767 1.1358999 0.93373007 2.3037302
000350 d8 59 5d c0 5e 4a 0c 3f aa c9 e4 3f 54 af 43 3f
       -3.4586086 0.54800975 1.7874043 0.76439404
000360 95 c2 85 3e ff 2c 06 3e 6b d2 47 40 a8 f9 b0 c0
       0.26125017 0.13103102 3.122218 -5.5304756
000370 18 1c ee 3f 10 a2 42 40 77 17 34 3e 97 94 89 bf
       1.8602324 3.0411415 0.17587076 -1.0748471
000380 95 92 4b be 08 ec a7 40 35 25 5b 3f 26 46 1f 40
       -0.19880135 5.2475624 0.8560365 2.4886565
000390 e5 7a 5f 3f 2d 6d 0e bf 09 ab 67 c0 58 1f dd bd
       0.872969 -0.5563534 -3.6198142 -0.10796994
0003a0 93 3f aa 3f dc 5e 93 c0 fc db 6c 3e de 95 30 c0
       1.3300651 -4.6053295 0.23130792 -2.7591472
0003b0 1e aa 7d 3d 84 d9 d6 3e 89 77 7c bf a1 fc e5 40
       0.061929815 0.41962826 -0.98619896 7.1870885
0003c0 53 3f 40 40 28 f2 10 3d 5a 1e b0 c0 1d f4 9f bf
       3.003865 0.03538719 -5.503705 -1.2496372
0003d0 35 e6 a7 be ca 15 85 be dc 6f 38 3f 7f 1b 9c c0
       -0.32792822 -0.25993186 0.72045684 -4.8783565
0003e0 89 23 5c 3e 14 f0 5e bf 9b e1 be c0 71 f6 af 3f
       0.2149793 -0.8708508 -5.9650397 1.3747083
0003f0 0a d7 4f 40 05 50 be bf 35 76 44 c0 25 c9 77 40
       3.2475 -1.486817 -3.0697148 3.871652

b1.running_var f4 [256]
000000 10 2b 9a 41 9a 36 5b 42 3a 82 3d 40 3a e6 99 40
       19.271027 54.80332 2.9610734 4.809354
000010 7b b0 24 42 04 97 d8 41 e3 16 7d 41 27 40 35 42
       41.172344 27.073738 15.818088 45.31265
000020 57 b3 61 42 c6 c0 d2 42 5d d4 0a 42 15 ac 7f 42
       56.425137 105.37651 34.707386 63.91805
000030 f1 3d 2f 42 4b fe 4c 42 b7 18 8d 41 94 37 f1 41
       43.81049 51.248333 17.637068 30.152138
000040 bc 70 b1 42 8f d5 f3 41 40 cb 0d 42 cc a5 1e 42
       88.720184 30.479277 35.448486 39.66191
000050 3e a9 9c 41 3b b5 7d 42 91 c0 23 3f 54 22 d3 3e
       19.582638 63.426983 0.6396571 0.41237128
000060 11 50 dd 41 c6 be 35 43 87 3e 9a 40 d6 2e ad 41
       27.664095 181.74521 4.8201327 21.64787
000070 8c 04 98 42 4a 6c eb 41 00 de 8d 42 95 a0 60 42
       76.00888 29.427876 70.93359 56.15682
000080 bd ba 0a 42 3d ca 62 41 ee ee 31 42 8d 11 e9 40
       34.68236 14.174375 44.48333 7.2833924
000090 2e 7c d6 41 4d bd 35 41 8b 4b 8a 42 a9 6d dc 42
       26.810635 11.358716 69.147545 110.21418
0000a0 4b d2 90 41 b6 c8 36 42 fd 6c 53 43 18 25 55 42
       18.102682 45.696007 211.42574 53.286224
0000b0 b7 59 60 42 5f 1d 77 41 b5 b2 21 42 14 19 f4 41
       56.087612 15.444671 40.42452 30.512245
0000c0 58 8b 39 42 76 67 2e 41 d7 a1 40 43 0f 1a b2 42
       46.386078 10.900259 192.63219 89.050896
0000d0 70 2d b9 3e 0b 33 aa 41 7e 0a 74 42 38 a8 1a 42
       0.3616748 21.274923 61.010246 38.664276
0000e0 cf aa c0 41 c4 a0 b8 42 e1 af 41 42 c1 b3 8b 42
       24.083403 92.313995 48.421757 69.85108
0000f0 23 25 6d 42 ba 1b 21 42 ec 1e b1 42 a5 ae 0f 43
       59.286266 40.277077 88.560394 143.6822
000100 f9 38 3f 42 e8 f7 03 42 89 2b a5 41 9f f8 08 42
       47.805637 32.992096 20.646257 34.242794
000110 38 18 b6 41 59 78 50 41 e2 48 ae 41 a8 65 56 42
       22.761826 13.029382 21.785587 53.599274
000120 1a fd 0c 42 ef 64 a7 41 dd fd 39 41 65 94 3a 42
       35.24717 20.924284 11.624478 46.644917
000130 c4 93 c9 3e 07 5d 57 41 1e 6f dd 42 47 11 49 42
       0.3937055 13.460212 110.717026 50.266872
000140 6f f5 15 41 7b e4 60 42 e7 84 1f 42 c7 6a 08 42
       9.37242 56.223125 39.879787 34.104275
000150 bd cb 8e 41 76 06 aa 40 e6 1c 05 42 5d 1b b2 41
       17.849482 5.3132887 33.27822 22.263361
000160 b5 75 9e 42 18 3c 65 42 f1 58 3b 42 da ff a4 41
       79.2299 57.308685 46.836857 20.624928
000170 28 ad 90 41 b3 ae 47 42 65 f2 31 42 d0 7e 11 42
       18.084549 49.920605 44.486713 36.37384
000180 da 96 a6 41 93 ab 34 42 8b 16 22 42 24 7b 6c 42
       20.823658 45.167553 40.522015 59.120255
000190 d4 c0 93 42 2e a2 32 42 3b 2c e1 40 8d f6 30 42
       73.87662 44.65838 7.036649 44.240772
0001a0 df 63 12 42 26 cf ac 41 aa fa 85 42 f1 c9 15 42
       36.59753 21.601147 66.98958 37.44721
0001b0 74 f0 98 41 12 50 51 42 ff 99 1a 42 63 8d 8f 42
       19.117409 52.328194 38.650387 71.776146
0001c0 17 0c 85 41 e7 a4 71 42 31 00 16 42 f1 9e c9 41
       16.630903 60.411037 37.500187 25.202608
0001d0 5f a9 33 42 0a 9d 80 42 78 9b 2a 42 2d 35 10 3f
       44.9154 64.30672 42.651825 0.5633114
0001e0 c9 0b 1e 42 e3 60 f8 41 44 12 fd 42 65 8b 51 42
       39.51151 31.047308 126.535675 52.386127
0001f0 23 8d af 41 9b 4c 90 41 f9 e6 6c 42 35 9d 33 42
       21.943914 18.037405 59.22556 44.903522
000200 bc c1 38 42 11 c4 08 42 01 0b 38 42 a5 94 63 41
       46.189194 34.19147 46.010746 14.22379
000210 48 de 8f 42 8e 28 81 41 a4 25 30 42 0a c5 0b 42
       71.93414 16.144802 44.03676 34.94242
000220 6c 42 34 42 cd 68 74 42 8e 5c 30 42 fd 5d b8 42
       45.064865 61.102345 44.090385 92.18357
000230 76 d0 4d 41 72 42 82 42 88 33 c0 42 16 f2 82 42
       12.863394 65.129776 96.10065 65.472824
000240 7d d8 15 42 31 85 71 42 dc 86 b8 41 c0 d0 79 42
       37.461414 60.38007 23.06585 62.453857
000250 bc 76 21 3f bb f3 09 42 98 6e 95 42 83 37 bf 41
       0.630718 34.488018 74.716 23.902105
000260 33 ea 2a 42 1f 4e 07 42 b6 60 06 41 55 4d f5 41
       42.72871 33.82629 8.398611 30.66276
000270 65 16 4e 42 c4 c5 b2 41 f7 ea c3 41 9a e8 84 3e
       51.52187 22.346565 24.489729 0.2595871
000280 8b 1b 3d 42 6f 60 17 42 81 f1 bb 41 d6 7e 99 41
       47.276897 37.844173 23.492922 19.186932
000290 e1 72 70 42 65 a1 6a 40 17 5e e6 41 89 08 dc 41
       60.112186 3.6661007 28.795942 27.504168
0002a0 50 31 ab 41 5e 1b c7 41 c5 e0 9b 42 60 81 0f 42
       21.399078 24.888363 77.939 35.876343
0002b0 40 88 59 41 62 73 e7 41 4e d3 1b 43 18 4d ad 41
       13.595764 28.93134 155.82541 21.662643
0002c0 58 c8 5d 42 6f c1 ed 40 59 0f 55 42 06 1f 05 43
       55.44565 7.4298625 53.264988 133.12119
0002d0 08 18 55 41 75 e0 71 41 75 8b 74 42 ec 6b 92 42
       13.318367 15.117299 61.13619 73.210785
0002e0 ef 28 48 42 3b f0 a5 42 22 66 e7 41 f7 b0 d5 41
       50.039974 82.9692 28.92487 26.711409
0002f0 8f c9 8d 42 8b 59 58 42 f0 69 21 43 14 d4 41 42
       70.89367 54.087444 161.41382 48.457108
000300 65 74 e5 41 79 6d 85 42 70 75 b6 42 5e 25 73 41
       28.681833 66.71381 91.22937 15.196623
000310 ef 89 43 42 be 26 12 42 1e 1f 5b 42 94 c6 0c 42
       48.8847 36.537834 54.780388 35.193924
000320 4b be b5 41 f8 23 00 42 66 ee e0 41 0a 7a 49 42
       22.717916 32.035126 28.116405 50.36918
000330 bd a5 52 42 57 65 c5 41 4d 8a f4 41 f9 d8 49 42
       52.661854 24.674482 30.56753 50.461887
000340 52 be 00 42 ce 20 c6 41 68 c5 b3 42 95 07 48 41
       32.18586 24.766018 89.88556 12.501851
000350 a3 8b 4f 42 48 4b 81 42 02 dc 37 42 b6 c4 37 42
       51.886364 64.64703 45.96485 45.9421
000360 72 dd aa 42 d2 3d 4b 42 84 74 6b 43 07 f8 b3 41
       85.43251 50.81037 235.45514 22.496107
000370 07 a5 a3 41 96 0b 77 42 b5 06 c9 41 33 6f 41 42
       20.45558 61.761314 25.128275 48.358593
000380 b5 c8 4b 3e 18 24 84 42 88 16 22 42 fc ca 7d 42
       0.19900782 66.070496 40.522003 63.448227
000390 e1 30 20 42 65 af 0e 42 f6 8a 6e 41 c3 6d e4 42
       40.047733 35.671284 14.908926 114.21438
0003a0 9d 57 52 41 11 3e 50 42 77 c9 47 42 f7 f4 16 42
       13.14639 52.06061 49.946743 37.739223
0003b0 42 d2 37 42 75 e9 12 42 9a b2 8b 42 ed 87 a5 41
       45.95533 36.727985 69.84883 20.69137
0003c0 bb b5 22 42 c7 fa 5f 42 2d 76 8f 41 27 6a d7 41
       40.67747 55.9949 17.932703 26.926832
0003d0 bd 77 12 41 bd 45 fe 3d e6 f5 f4 40 5d ca 28 42
       9.154233 0.12415645 7.655017 42.19762
0003e0 a0 1b 4a 42 0c df 8f 41 35 3d 11 42 f1 f6 ab 40
       50.526978 17.98391 36.309772 5.373894
0003f0 14 ae e2 41 db d3 37 42 62 41 0d 42 91 8b 03 43
       28.335 45.95689 35.31385 131.54518

fc2.weight f4 [128, 260]
000000 25 ff c6 bd ff 11 92 3d 1b 2d c9 bd ea a5 52 3d
       -0.09716634 0.07132339 -0.09823056 0.05142776
000010 18 58 ed bd 1c 2e 1d bc 6a b6 fc bd 14 12 49 bd
       -0.11589068 -0.009593513 -0.1233948 -0.049089506
000020 49 c5 58 3d 55 c1 74 bd 06 cc 86 bd 05 19 ac bc
       0.05292252 -0.05975469 -0.06581883 -0.021008024
000030 02 fb 94 bd b0 db a9 bd 96 44 81 bd 61 78 15 3d
       -0.072744384 -0.08293855 -0.0631191 0.036491755
000040 c4 81 15 be a7 80 c2 bd 70 98 bd bd 8e c2 a1 bd
       -0.14600283 -0.09497195 -0.09257591 -0.078984365
000050 5b fc 48 bb 4f 1d b1 bd b1 a5 06 3c 65 19 e4 ba
       -0.0030667994 -0.08648168 0.008218215 -0.0017402588
000060 e9 9c b8 bd 2b 6f dd bd de 11 02 bd f6 f6 c7 bd
       -0.09014303 -0.10812219 -0.03175532 -0.09763901
000070 a2 93 50 bc 9a c4 8b bd 08 1c fc 3c c5 80 dd 3c
       -0.012730511 -0.06824608 0.030775085 0.027038941
000080 3c e7 9b bd 29 3f 41 be 2b 95 86 3d 25 69 f8 bb
       -0.07612464 -0.1887175 0.0657142 -0.0075808936
000090 4c ec e7 bd be e5 95 bd 68 a3 0f 3d 86 ad 04 bd
       -0.11324367 -0.073192105 0.035067946 -0.032392047
0000a0 1b 1c c5 bd fa 10 04 3d 81 3f 2e bd a2 9c be bd
       -0.09624501 0.032242753 -0.04254103 -0.09307219
0000b0 14 fe 89 bd ca b6 74 bd 67 e2 0e bd cf f6 c3 bd
       -0.06737915 -0.059744634 -0.034883883 -0.095685594
0000c0 aa 87 ae bc ca e9 68 bc 47 eb c4 bd 96 7c fd 3c
       -0.021304924 -0.014215896 -0.09615188 0.030943196
0000d0 66 f8 7d bd 7a 38 8e bd 76 4b 63 bd fe a8 2f 3d
       -0.06200447 -0.06944366 -0.055491887 0.042885773
0000e0 07 bd e7 bd 42 ac 96 bd 38 b3 09 bd c7 7f 3f 3d
       -0.11315351 -0.07357074 -0.033618182 0.046752717
0000f0 b1 bb 7e 3c ba 56 33 3b ca 00 9e 3c a7 e6 59 bc
       0.015547679 0.0027364925 0.019287486 -0.013299621
000100 2c d2 81 3d 41 c8 00 bd 41 0c bf 3a c0 50 87 3d
       0.06338915 -0.031440977 0.0014575796 0.06607199
000110 01 a7 09 bc 6e 91 16 bc 45 b4 06 bd 1d 74 22 3d
       -0.008401633 -0.009189947 -0.032886762 0.039661516
000120 da 73 0c bc 60 07 09 be 1e 10 f5 bd 33 83 c2 bd
       -0.008572543 -0.1338172 -0.11965965 -0.094976805
000130 43 e7 b4 bd a9 11 a2 bd 7c a4 9e 3a 6d 6b 03 bd
       -0.08833172 -0.07913525 0.0012103464 -0.03208487
000140 1e c5 d9 3c a5 c9 db bd 1a f8 0b bd 65 0e f9 bd
       0.02658325 -0.1073182 -0.034172155 -0.12160949
000150 41 63 ab bd b1 aa 62 bd 8e 26 11 bd 7e bd 1d 3d
       -0.083685406 -0.055338565 -0.03543716 0.038510792
000160 79 fa 97 bd 6d 20 fa bd 7f e6 b4 bb 2c 52 a1 3d
       -0.07420821 -0.12213216 -0.0055206413 0.07877001
000170 fa 65 a9 3c b5 75 d3 bd cb ca 85 3d 1e 39 a8 bd
       0.020678509 -0.10325185 0.0653282 -0.08214019
000180 f6 b3 62 3c 83 c2 d1 bd 46 57 2a bd 29 ca 4a 3d
       0.013836851 -0.10242178 -0.041587137 0.0495092
000190 2f f4 05 bd 9e 80 a7 3b 22 c1 f9 bc 74 95 42 3d
       -0.032703575 0.005111768 -0.0304876 0.04750581
0001a0 7d f8 93 b8 85 2c 5e 3b de 76 13 bd c9 a2 af 3c
       -7.055791e-05 0.0033901047 -0.036002032 0.021439927
0001b0 23 57 c8 3a fc ef 83 bd a8 56 a2 bd d4 1c 08 be
       0.0015284758 -0.06442258 -0.079266846 -0.13292247
0001c0 6a 09 d5 bc 60 ee 7f 3c 97 7c 82 3d 6a 44 37 bd
       -0.026005466 0.015620798 0.0637142 -0.04474298
0001d0 2c 54 50 bd 89 5c 89 3b 8a 9d 50 3d 22 03 aa 3c
       -0.050861523 0.0041919393 0.05093149 0.020753447
0001e0 3a 28 ac bd 87 38 42 3d c5 34 7d ba a3 d5 fd bc
       -0.0840611 0.04741719 -0.00096590474 -0.030985659
0001f0 58 7c 12 be 21 6a ab bc 2b 0b 2d bd d1 fe 6f bd
       -0.14305246 -0.02092463 -0.04224698 -0.05859262
000200 93 a4 4d bc 0d d0 ab bd 7d f3 ba 3c 05 ec 98 bc
       -0.012551445 -0.08389292 0.022821182 -0.01866723
000210 d8 17 fd bc 66 e1 fe bd 26 c5 17 bd f3 49 97 3d
       -0.030895159 -0.12445335 -0.03705325 0.073871516
000220 cb 9a 05 3d 59 6c a6 3b fb 97 9e bd cc c5 b0 bd
       0.032618325 0.005078834 -0.07743832 -0.08631477
000230 9a 6b ca bd 0c 51 02 3b 4f 42 7e bd 35 b2 49 bd
       -0.098838046 0.0019884733 -0.062074956 -0.049242217
000240 c2 3a 71 3b e4 ad 94 3c b6 04 10 3d 56 93 b4 bd
       0.0036808704 0.018149324 0.035160743 -0.088171646
000250 3d dd 70 3d 94 23 dd bd bc e1 78 bd 41 d4 b1 3b
       0.05880474 -0.107978016 -0.060762152 0.005426914
000260 98 6f 9d bc ca 20 1d bc 94 45 ab bd 9d 3b 7b bd
       -0.019218251 -0.009590337 -0.0836288 -0.06133615
000270 4d 37 6c bd 4e 72 c0 bd 42 9d fa 3c 18 58 34 bc
       -0.057669926 -0.09396802 0.030592564 -0.011007331
000280 c2 59 93 bd 0e 06 98 bd b9 47 fb 3c 64 54 23 bc
       -0.07194854 -0.0742303 0.030673848 -0.009968851
000290 7f 83 bb bd ff 22 cc bc c5 1a c9 bc 20 af e7 3c
       -0.0915594 -0.024919031 -0.024548898 0.028281748
0002a0 e3 b9 93 bd 29 cd f6 bd 0b 10 0b bd fe e8 92 bd
       -0.072131895 -0.1205085 -0.033950847 -0.07173346
0002b0 e7 48 e9 bc 8d 98 af bc f0 bd ff bd 1e 11 67 bd
       -0.028477145 -0.021435047 -0.124873996 -0.05641281
0002c0 d0 55 7a bd 5f e3 ee bc d6 fa 1c 3d 44 81 2f 3c
       -0.061116993 -0.029161153 0.038325153 0.010711972
0002d0 f2 34 a0 bd 7d d1 80 3d 30 80 02 bd 8a 42 28 bd
       -0.078225985 0.06289957 -0.03186053 -0.04107908
0002e0 72 89 9f bc bc b3 6d bd c6 22 87 bd bb 22 c9 bd
       -0.019474719 -0.058032736 -0.065984294 -0.098210774
0002f0 72 fe be bd 73 de e8 bd cc c7 cf bd 4c 6a 9d bc
       -0.09325875 -0.11370554 -0.1014553 -0.019215725
000300 f6 af d7 3c 25 8d 93 bd 4e d3 59 bd 4b 0c 14 be
       0.026329022 -0.072046556 -0.05318003 -0.14457814
000310 49 2d 48 bc 58 d7 4a bd 33 c7 bb bd 33 9c 26 3d
       -0.012217828 -0.049521774 -0.091688536 0.040676307
000320 3f be 45 bd 0f 58 b0 bd 5a 07 e5 3b fd d2 b7 bd
       -0.048277136 -0.08610546 0.0069894018 -0.0897579
000330 59 59 a3 bd b4 b0 5d 3d 06 09 72 3d 87 6c da bd
       -0.07976026 0.054123595 0.059090637 -0.10665231
000340 21 c5 8f bd 98 e2 e0 bd f8 de 56 bd e0 a6 5f 3c
       -0.07020021 -0.10980719 -0.052458733 0.013650626
000350 06 b5 92 bd 80 46 d5 ba 6a a9 f7 bc 4f ec ac bd
       -0.07163434 -0.0016271621 -0.03023215 -0.0844351
000360 91 47 3a be fc af 9b bd 3b 57 b1 bd e7 c7 fc bb
       -0.18191363 -0.07601926 -0.08659216 -0.00771426
000370 aa 13 58 3d d4 b4 9f bd 09 49 89 bd ac 69 d2 bd
       0.052753128 -0.07798162 -0.067033835 -0.102740616
000380 6d e2 59 3c b2 a9 22 bd b1 82 cd bd c4 21 b4 bd
       0.013298613 -0.039712615 -0.10034693 -0.08795503
000390 c9 d5 0f 3a ab 56 3e 3c 8f b1 1f 3d 17 02 5d bd
       0.00054868736 0.011617343 0.038987692 -0.05395707
0003a0 4f af a4 bc a5 14 f1 bc 0e 04 75 bd 67 32 cc bd
       -0.020103125 -0.02942879 -0.05981832 -0.09970551
0003b0 6f df 75 bd 3a b3 95 bd 0f d2 88 bd aa 0e 0f bd
       -0.060027536 -0.073095754 -0.066806905 -0.034926094
0003c0 4d f3 5b bd 80 ed 35 bd d3 d2 ec bc e7 4e 1c bd
       -0.053698827 -0.04441595 -0.028909123 -0.038161185
0003d0 54 fb dc bc 61 13 36 bb 1f 96 8b 3c 1f 7d f8 bd
       -0.026975311 -0.0027782547 0.017039357 -0.1213324
0003e0 26 f0 53 bd a3 f3 42 bd 0c 7a 40 3d f7 19 e0 3c
       -0.051742695 -0.04759563 0.046991393 0.027356131
0003f0 0e fc 93 bb 11 db 21 3b 01 c3 55 3d c3 2e e2 bd
       -0.0045161312 0.0024697224 0.052187923 -0.11044075
