checkpoint_actor .pth (torch_old, 173990 bytes, 10 tensors)

fc1.weight f4 [256, 33]
0	0xbd163ea8	-0.036680847
1	0x3e5dd94b	0.21664922
2	0x3d6d967e	0.05800485
3	0xbd0e7025	-0.034774918
4	0xbe60de34	-0.21959764
5	0xbb5c7c48	-0.0033643413
6	0xba09d8c0	-0.00052584335
7	0x3c5b168f	0.013372078
8	0x3d3c2a4e	0.045938782
9	0x3c5b03a3	0.013367566
10	0xbc713241	-0.014721454
11	0x3c6a2637	0.014291338
12	0x3ca3d6fe	0.019999977
13	0x3d4218d2	0.04738695
14	0xbd9b8cd5	-0.07595221
15	0xbd7f43eb	-0.06232063
16	0x3df8d42d	0.12149844
17	0x3d6b7ae8	0.05749026
18	0x3c439134	0.011936475
19	0x3d0fe3f2	0.035129495
20	0x3cb2eec8	0.021842375
21	0x3d21ea7c	0.039530262
22	0x3d385d29	0.04501072
23	0x3d20879c	0.039191827
24	0xbd0764be	-0.03305506
25	0xbcfa0c2c	-0.030523382
26	0x3ca00836	0.019535165
27	0xbc2cc87c	-0.010545846
28	0x3d1f6802	0.03891755
29	0xbcd3a924	-0.025837488
30	0x3cef9075	0.029243687
31	0xbb84f3a0	-0.0040573627
32	0xbf8503f0	-1.0391827
33	0xbd67d269	-0.056597147
34	0xbd81ea17	-0.06343477
35	0xbe0329ab	-0.12808864
36	0x3d3c1a10	0.045923293
37	0xbde7d1cd	-0.11319313
38	0xbe469af2	-0.19395044
39	0xbc57a08f	-0.013160839
40	0x3d0f9251	0.035051648
41	0x3d1ce5b5	0.038305003
42	0xbe05a079	-0.13049497
43	0x3c39e614	0.011346359
44	0xbcd21080	-0.025642633
45	0xbd443465	-0.04790153
46	0xbd0b3fb5	-0.033996303
47	0x3db0c79a	0.08631821
48	0x3db0e61c	0.0863764
49	0x3d4c9c8f	0.049953993
50	0xbbcb95db	-0.0062129325
51	0x3e0f11dc	0.13971657
52	0xbd91f314	-0.071264416
53	0x3d0841d0	0.03326589
54	0x3d4be0ce	0.049774937
55	0x3bb09991	0.0053894003
56	0xbc44f80d	-0.012022031
57	0xbbae1403	-0.005312444
58	0x3bd91bab	0.0066256127
59	0x3e034c6d	0.12822123
60	0xbcaee062	-0.021347228
61	0xbdb575f0	-0.088603854
62	0x3bad5f80	0.0052909255
63	0x3d306ede	0.04307448
64	0x3c5286d0	0.012849525
65	0x3f4f9e76	0.8110117
66	0xbe6c2271	-0.23060013
67	0xbcc8571b	-0.024455598
68	0x3dd08712	0.101820126
69	0x3e0212fe	0.12702557
70	0xbdf3bd3b	-0.11901327
71	0xbd80875c	-0.06275818
72	0x3e1ecb02	0.15507129
73	0x3cbc8726	0.023013663
74	0x3c825384	0.015908964
75	0xbe12fb9b	-0.14353792
76	0x3d3291c3	0.04359604
77	0x3b82f546	0.003996524
78	0x3cae120b	0.021248838
79	0x3ea22752	0.31670624
80	0x3d78bf3f	0.06072926
81	0xbd55f8d4	-0.052239254
82	0x3d87e936	0.06636278
83	0xbc028cb9	-0.007968121
84	0x3da8715c	0.082247466
85	0x3d4ddcd7	0.050259437
86	0xbb34020a	-0.0027467036
87	0x3c9ffe2f	0.019530384
88	0xbd12fae0	-0.035883784
89	0x3d1881f4	0.037233308
90	0x3c4d0aeb	0.01251481
91	0xbbd84c73	-0.0066009103
92	0xbe12609e	-0.14294669
93	0x3d0be6e4	0.03415574
94	0xbce8f35f	-0.02843636
95	0x3d039cf8	0.03213212
96	0xbcfcf10a	-0.030876655
97	0xbcd700f8	-0.02624558
98	0xbda3b8ce	-0.07994233
99	0x3ce6e9c6	0.028187644
100	0x3d183cd7	0.037167396
101	0x3e0e9f89	0.13928045
102	0x3d08f632	0.033437915
103	0x3d8288fd	0.06373785
104	0x3ed21926	0.41034812
105	0xbee004b9	-0.43753603
106	0xbc3ccb29	-0.0115230465
107	0x3e300549	0.17189516
108	0x3d80cc80	0.06289005
109	0xbd397682	-0.045279033
110	0x3d9d0532	0.076670066
111	0x3d9a88d6	0.07545631
112	0xbb1a8ba8	-0.0023581777
113	0x3df82e58	0.12118214
114	0xbdc2433b	-0.094854794
115	0xbd9a1f4d	-0.075255014
116	0xbe13534a	-0.14387241
117	0xbd3c6a24	-0.04599966
118	0xbdc9cfbb	-0.098540746
119	0xbe0d4c2d	-0.1379859
120	0xbd2f37a3	-0.04277767
121	0xbdbd852d	-0.09253917
122	0xbe320921	-0.17386295
123	0xbd1b84af	-0.037968334
124	0x3d0b394c	0.03399019
125	0xbe12cc71	-0.143358
126	0x3d086e1a	0.033308126
127	0x3d407f57	0.04699644
128	0xbd6b6fe6	-0.05747976
129	0xbc82537b	-0.015908947
130	0x3c41d8f8	0.011831515
131	0x3d6b04f1	0.05737776
132	0xbd71cad3	-0.05903132
133	0x3e5b5172	0.21417788
134	0x3e1a08fd	0.15042491
135	0xbe2ede02	-0.17076877
136	0x3e4fe135	0.20300753
137	0xbcf6cc0b	-0.030126592
138	0xbce7145f	-0.028207956
139	0x3d053d7b	0.032529335
140	0xbd17adb4	-0.03703089
141	0x3e3b034c	0.18262976
142	0x3d606805	0.0547867
143	0x3d013eae	0.031553917
144	0xbd513f8f	-0.051086005
145	0x3dfce0a4	0.12347534
146	0x3df93d59	0.12169904
147	0xbd25b5ae	-0.040456466
148	0xbd895415	-0.067054905
149	0x3e92b2ca	0.2865203
150	0xbda9d055	-0.08291689
151	0x3e44add7	0.1920694
152	0xbca5c103	-0.020233637
153	0x3b5e8989	0.003395649
154	0xbbccacce	-0.006246186
155	0xbe0465aa	-0.12929407
156	0x3ca2b467	0.019861413
157	0x3d31ca59	0.043405864
158	0xbdb1c871	-0.08680809
159	0x3d79b054	0.060959175
160	0x3e24ae89	0.16082205
161	0x3d3848b8	0.044991225
162	0xbc8e3c40	-0.017362714
163	0xbbeed940	-0.007289082
164	0x3e355845	0.17709453
165	0xbc935340	-0.017984033
166	0xbd9f8b1b	-0.07790204
167	0xbeb2d873	-0.34930763
168	0x3b0c2caa	0.0021388927
169	0x3e1a775f	0.15084599
170	0xbee9949f	-0.456212
171	0xbe3fab20	-0.18717623
172	0x3caa794a	0.020809788
173	0xbe0631a5	-0.13104875
174	0xbe2eeb78	-0.17082012
175	0xbdc9dda4	-0.09856728
176	0x3c78250e	0.015145553
177	0xbd862ce5	-0.06551532
178	0x3b502311	0.0031759182
179	0xbd0a2bdf	-0.033733245
180	0x3db6adaf	0.08919846
181	0x3e6d5d28	0.23180068
182	0x3e5fe436	0.218644
183	0xbd1a0696	-0.037603937
184	0xbd865c5f	-0.06560587
185	0xbe39ad54	-0.18132526
186	0x3ca87852	0.020565186
187	0x3d452839	0.048134062
188	0x3d88141f	0.06644463
189	0xbb75b9bd	-0.0037494742
190	0xbc9f3f55	-0.019439379
191	0x3da75a01	0.08171464
192	0xba0624fe	-0.00051172066
193	0x3d3441dc	0.04400812
194	0xbd5c09ba	-0.053720213
195	0xbd4e83fc	-0.05041884
196	0xbc4a3ad0	-0.012343124
197	0xbbc5e30a	-0.006039028
198	0x3e60ecfe	0.21965405
199	0xbcd1881d	-0.0255776
200	0xbdffb8f1	-0.12486447
201	0x3cd5c213	0.026093518
202	0x3d38530d	0.04500108
203	0x3dc44fae	0.0958551
204	0x3e9f7c7d	0.31149665
205	0xbd281814	-0.041038588
206	0x3c7637cb	0.0150279505
207	0x3b71a912	0.0036874455
208	0x3c997060	0.018730342
209	0x3dfa9805	0.12236027
210	0xbc293714	-0.010328073
211	0xbe9d560e	-0.30729717
212	0x3c7c2bc4	0.015391294
213	0x3cfc5e98	0.030806825
214	0x3e7453a4	0.23860031
215	0x3d68d986	0.05684807
216	0xbbcdb68c	-0.006277865
217	0xbb33f2ce	-0.0027457955
218	0x3ba6e926	0.0050937114
219	0x3ca523ec	0.02015873
220	0xbd9702fc	-0.07373616
221	0xbda98bf5	-0.08278648
222	0x3c14ebdb	0.009089435
223	0x3d3ac07e	0.04559373
224	0xbb736673	-0.0037139922
225	0x3d0a5d3f	0.033780333
226	0xbd68e245	-0.056856412
227	0x3cb127a0	0.02162534
228	0xbce8d634	-0.028422453
229	0xbd4fd57a	-0.050740696
230	0xbe67e41b	-0.22645609
231	0x3d63056e	0.0554251
232	0x3e6403bd	0.22267051
233	0xbc1f61f1	-0.009727941
234	0xbe803e2b	-0.2504743
235	0xbd655266	-0.055986784
236	0xbe3694e3	-0.17830233
237	0x3dc1d281	0.094639786
238	0xb8d27e7f	-0.00010037142
239	0xbd4add29	-0.04952732
240	0xbe0e6645	-0.139062
241	0xbd73a196	-0.059480272
242	0x3a447f3c	0.0007495766
243	0x3c35a3a1	0.011086375
244	0xb95b9546	-0.00020941076
245	0xbcff336b	-0.031152448
246	0x3d0a73a3	0.033801686
247	0x3ded4b4b	0.115866266
248	0x3d94854e	0.07251988
249	0x3b96d486	0.0046029715
250	0x3d3b76f0	0.045767725
251	0xbcbee791	-0.023303779
252	0x3ce75afd	0.028241629
253	0xbc224d16	-0.009906074
254	0x3d282efb	0.04106043
255	0xbd057138	-0.032578677

fc1.bias f4 [256]
0	0xbe2b4c50	-0.1672833
1	0xbe2b8853	-0.16751222
2	0x3e29047b	0.16505615
3	0x3d097a0f	0.03356367
4	0xbd718a99	-0.058970068
5	0x3e1e35aa	0.15450159
6	0xbcecfb15	-0.028928319
7	0x3c9e84c8	0.019350424
8	0xbe31a21d	-0.17346998
9	0xbe23a8e4	-0.15982395
10	0xbe2fa5e7	-0.1715313
11	0x3d790337	0.06079408
12	0x3defde83	0.117123626
13	0xbdc79e49	-0.097469874
14	0x3d9d7da4	0.0768998
15	0x3e2fe57e	0.17177388
16	0x3d2bd3b2	0.041949935
17	0x3be058c2	0.0068465183
18	0xbd32f79f	-0.04369318
19	0x3cf1998e	0.029492166
20	0x3e07bba7	0.13255177
21	0x3de2f7dc	0.11082432
22	0xbe2dae0d	-0.16960926
23	0x3d88fd06	0.066888854
24	0xbdb7fa78	-0.0898332
25	0x3e0aea66	0.13565978
26	0xbdfa4bc1	-0.1222148
27	0xbe2b576d	-0.16732569
28	0x3db7fcd3	0.08983769
29	0xbd6a75c4	-0.057241216
30	0x3a36920a	0.00069645105
31	0xbca22428	-0.019792631
32	0x3c8a781b	0.016902974
33	0xbd525c38	-0.051357478
34	0x3cf158f6	0.029461365
35	0xbda43592	-0.0801803
36	0x3de739a5	0.11290292
37	0x3d8ebb33	0.06969299
38	0xbdce2d74	-0.10067263
39	0xbd128cef	-0.035778936
40	0x392d2c5c	0.00016515091
41	0xbb74f2f3	-0.0037376254
42	0x3e0bd38a	0.13654914
43	0xbd8586ba	-0.06519838
44	0x3dab69b9	0.08369774
45	0xbdfd1d0e	-0.12359057
46	0x37d0bfbc	2.4884816e-05
47	0xbde82b70	-0.1133641
48	0xbcfad4c7	-0.030619038
49	0x3d7bd374	0.061480954
50	0xbd1ffe40	-0.03906083
51	0x3e1491d3	0.14508753
52	0xbd170acf	-0.036875542
53	0x3dbb1a7f	0.09135913
54	0xbc7cc760	-0.015428394
55	0xbe00af26	-0.12566814
56	0x3d3386f6	0.04382988
57	0xbd7f78d2	-0.062371083
58	0x3db82ae8	0.08992559
59	0xbd68c813	-0.05683143
60	0xbe044d39	-0.12920083
61	0x3e1f4b11	0.1555598
62	0xbe30ee5f	-0.17278431
63	0x3cd9d9b9	0.026593076
64	0x3e2ca675	0.16860373
65	0xbde81044	-0.113312274
66	0xbe2e7bc7	-0.17039405
67	0x3df8cd8a	0.121485785
68	0x3cab23c6	0.020891082
69	0x3df03249	0.11728341
70	0x3d17be41	0.037046675
71	0x3b54ad9b	0.003245211
72	0x3d7a0a06	0.061044715
73	0xbe304d51	-0.17216994
74	0x3d9881eb	0.07446655
75	0xbd9105a3	-0.07081153
76	0xbddc01f7	-0.10742562
77	0x3d423864	0.04741706
78	0x3bb38b0b	0.0054792217
79	0x3e18f23f	0.1493616
80	0xbdcbf498	-0.09958762
81	0xbe148ffe	-0.14508054
82	0x3c9aaa1e	0.018879946
83	0x3c822b7d	0.015889877
84	0xbdbc64e3	-0.0919893
85	0xbd7f4cb1	-0.062328998
86	0x3e0e4808	0.13894665
87	0x3e128ca9	0.1431147
88	0xbdaa1ecc	-0.08306655
89	0xbd3eb1f7	-0.04655644
90	0xbd543ba0	-0.051814675
91	0xbd8e0ebe	-0.069364056
92	0xbc2f1905	-0.010687117
93	0x3d53d1a6	0.05171361
94	0xbdc6ab17	-0.097006015
95	0xbd00cfd2	-0.031448193
96	0xbe226eaa	-0.15862527
97	0x3de015ed	0.10941682
98	0xbd3b0775	-0.04566141
99	0xbde6b674	-0.11265269
100	0x3e297977	0.16550241
101	0x3d73a222	0.059480794
102	0x3dc2522b	0.094883285
103	0x3df24f23	0.118315004
104	0x3d68be3a	0.05682204
105	0xbdbeb560	-0.09311938
106	0xbe264f72	-0.16241243
107	0xbd895283	-0.06705191
108	0xbd4a2a0c	-0.049356505
109	0xbd0e1a65	-0.03469314
110	0x3dc7c79a	0.09754868
111	0xbe287727	-0.16451703
112	0x3db457fc	0.08805844
113	0x3dc41dce	0.09575997
114	0x3c861191	0.016365798
115	0xbd0ccaf8	-0.034373254
116	0x3dc7ae44	0.097500354
117	0xbdea2f14	-0.11434761
118	0xbc4f441c	-0.012650516
119	0x3d619350	0.05507213
120	0x3d278da6	0.04090657
121	0x3c012da1	0.007884414
122	0x3d2d92a2	0.042376168
123	0xbe102c25	-0.1407934
124	0x3dce2820	0.10066247
125	0xbe0aa66f	-0.13540052
126	0x3d8914bb	0.06693407
127	0xbcc29494	-0.023752488
128	0xbda190be	-0.078889355
129	0x3bc01955	0.005862395
130	0xbd2576e6	-0.040396594
131	0x3e2215a6	0.1582857
132	0x3e144939	0.14481057
133	0x3d891375	0.06693164
134	0xbbfe6a73	-0.0077641546
135	0x3e0f640b	0.14003007
136	0xbe199a61	-0.15000297
137	0x3e213e23	0.1574636
138	0x3d97c4b2	0.074105635
139	0x3df34a04	0.11879352
140	0x3e23ec75	0.1600817
141	0x3c7603ba	0.015015537
142	0x3d483194	0.048875406
143	0x3db6e886	0.08931069
144	0xbdf179e6	-0.117908284
145	0x3e2de023	0.16980033
146	0xbc27f526	-0.010251319
147	0x3d810967	0.063006215
148	0xbde7ed68	-0.113245785
149	0x3e1e711e	0.15472838
150	0x3d05f161	0.0327009
151	0xbe0a65d9	-0.13515414
152	0x3df3a148	0.11895996
153	0x3d6ff595	0.058583815
154	0x3dad3b63	0.08458593
155	0xbc7cf927	-0.015440262
156	0x3cfcc99f	0.03085786
157	0xbdf2b1f4	-0.11850348
158	0x3e1a1d43	0.15050225
159	0x3dfd65dc	0.12372944
160	0xbc315a21	-0.010824711
161	0xbe1b8652	-0.15187958
162	0xbdf096e7	-0.11747532
163	0xbdae5c7e	-0.08513735
164	0x3deb36c3	0.11485054
165	0xbde5764a	-0.112042025
166	0xbdab24a2	-0.083565965
167	0xbd94387b	-0.07237335
168	0xbe0d1c72	-0.13780382
169	0x3d8a1475	0.06742183
170	0x3d6f1e80	0.058378696
171	0xbe1a135c	-0.15046448
172	0x3e02c6fe	0.12771222
173	0x3bea48e0	0.0071498007
174	0xbdd4fe61	-0.104000814
175	0x3c26fe09	0.010192403
176	0x3d1b2a43	0.0378821
177	0x3d572ad0	0.052531064
178	0xbdcd44ae	-0.10022865
179	0x3e2f671f	0.17129181
180	0x3e0bb767	0.13644181
181	0x3e1e7520	0.15474367
182	0xbc08b364	-0.008343551
183	0xbb216cb5	-0.0024631445
184	0xbe08d541	-0.133626
185	0x3e25afe0	0.16180372
186	0xbce0d3a6	-0.027444672
187	0xbd363e99	-0.04449329
188	0xbd3a6b30	-0.04551238
189	0xbde76c20	-0.1129992
190	0xbe13f626	-0.14449367
191	0xbbc74539	-0.00608125
192	0xbe12f689	-0.14351858
193	0xbdba55b1	-0.090983756
194	0x3de4a43f	0.1116414
195	0x3d8a4ebd	0.067532994
196	0xbe02dad6	-0.12778792
197	0xbcf02fcb	-0.029319664
198	0xbd941a55	-0.07231585
199	0x3d747bb3	0.05968828
200	0xbc6e104e	-0.0145302545
201	0x3d904ab6	0.070455
202	0x3d3249ac	0.04352729
203	0x3d16fee7	0.036864188
204	0x3deadd8d	0.11468039
205	0x3d82dadf	0.063894026
206	0xbe2f5f0c	-0.17126101
207	0x3e1a00ba	0.1503934
208	0xbe0e3c1f	-0.13890122
209	0x3dd2bfad	0.102904655
210	0xbc76d60c	-0.015065681
211	0x3dad29c2	0.0845523
212	0xbd8bb99f	-0.06822514
213	0xbca0574b	-0.019572875
214	0xbd3c59f2	-0.045984216
215	0x3e24b037	0.16082846
216	0xbdd292c0	-0.102818966
217	0x3dddeddf	0.10836386
218	0xbe18c97b	-0.14920609
219	0x3d6a2d1d	0.05717193
220	0xbe15c454	-0.14625674
221	0xbdc404fd	-0.09571264
222	0x3dbf4f87	0.093413405
223	0x3de35c14	0.11101547
224	0xbcc5ce40	-0.0241462
225	0xbe0f3179	-0.13983716
226	0xbe096299	-0.13416518
227	0x3d0741c9	0.033021722
228	0x3dcb9f09	0.09942443
229	0x3d8cc2a5	0.06873063
230	0xbe2dcf36	-0.16973576
231	0xbda64b89	-0.08119876
232	0x3d8f1d32	0.069879904
233	0x3dfab6bf	0.12241887
234	0x3db4105a	0.08792181
235	0xbd262235	-0.040559966
236	0xbcb53dfe	-0.022124287
237	0xbd6ba8f1	-0.057534162
238	0xbd7abf83	-0.061217796
239	0xbd0014ec	-0.031269953
240	0x3d67445c	0.056461677
241	0xbbdc9030	-0.0067310557
242	0x3d220d08	0.03956321
243	0xbc8c4094	-0.017120637
244	0x3dbf0ded	0.09328828
245	0xbd8a4bf6	-0.0675277
246	0x3c9d01f8	0.019165978
247	0xbc0a942f	-0.008458181
248	0xbdf485bf	-0.119395725
249	0xb9bf818b	-0.00036526876
250	0x3d185aaa	0.03719584
251	0x3cf91a71	0.030408116
252	0x3d1e3386	0.038623355
253	0xbdb1c0d7	-0.086793594
254	0xbe069453	-0.13142519
255	0x3d77c2d9	0.060488556

b1.weight f4 [256]
0	0x3f5695a7	0.838221
1	0x3f4f82ed	0.8105915
2	0x3f8d29df	1.1028403
3	0x3f6c1203	0.92214984
4	0x3f4ee7c5	0.808224
5	0x3ee0d579	0.43912867
6	0x3f80ca83	1.0061802
7	0x3ef63713	0.48088893
8	0x3f25c280	0.6474991
9	0x3f60e972	0.8785621
10	0x3f4dbf02	0.8036958
11	0x3f50624f	0.81400007
12	0x3f3f14d3	0.7464115
13	0x3f056a20	0.5211506
14	0x3f34a09b	0.70557564
15	0x3f3c1a7a	0.734779
16	0x3f4bd009	0.7961431
17	0x3f653423	0.8953268
18	0x3f2c5b8e	0.673272
19	0x3f8786f8	1.0588064
20	0x3f0eba56	0.55753076
21	0x3f807f96	1.0038936
22	0x3f1371ce	0.5759553
23	0xbefe6ed1	-0.4969392
24	0x3f6ec256	0.93265283
25	0x3f809eb8	1.0048437
26	0x3f460569	0.77352005
27	0x3f5d4815	0.86438113
28	0x3f90c832	1.1311095
29	0x3f7711d0	0.96511555
30	0x3f7dab02	0.9908906
31	0x3f8b16c6	1.0866325
32	0x3efabde2	0.48972994
33	0x3f5ecba2	0.8702947
34	0x3f04c493	0.5186245
35	0x3f613dda	0.87985003
36	0x3f1964c7	0.599194
37	0x3f83403b	1.0253977
38	0x3efc0cb1	0.49228433
39	0x3f3c6842	0.73596585
40	0x3f239fd1	0.63915735
41	0x3f8d49a8	1.1038103
42	0x3f817bfc	1.0115962
43	0x3f06c458	0.52643347
44	0x3f177677	0.5916514
45	0x3f4d8932	0.8028747
46	0x3f22d50f	0.6360635
47	0x3f35bbb0	0.70989513
48	0x3f386b07	0.7203831
49	0x3f685cc3	0.90766543
50	0x3f8eefc3	1.116692
51	0x3f257bb7	0.646419
52	0x3ef03992	0.46918923
53	0x3f6adf3c	0.9174688
54	0x3f27a02a	0.65478766
55	0x3f025b14	0.50920224
56	0x3f3c6bbd	0.73601896
57	0x3f20f788	0.628777
58	0x3e92d3d7	0.28677246
59	0x3f1a8e00	0.60372925
60	0x3f92da31	1.1472837
61	0x3f69229a	0.9106842
62	0x3f74c10c	0.95607066
63	0x3f8af0ca	1.0854733
64	0x3f187b52	0.5956317
65	0x3f5775c0	0.8416405
66	0x3f536796	0.82579935
67	0x3f5a81f5	0.8535455
68	0x3f08c431	0.53424364
69	0x3f74e8d3	0.9566776
70	0x3eb0e2dc	0.3454808
71	0x3f652db6	0.89522874
72	0x3f0ec577	0.5577006
73	0x3f384c63	0.71991557
74	0x3f8d170d	1.102266
75	0x3f600775	0.8751138
76	0x3eab178e	0.33416408
77	0x3f2178b3	0.630748
78	0x3f84b65f	1.0368155
79	0x3f4438b9	0.7664905
80	0x3f3a0bfc	0.72674537
81	0x3f4d3eca	0.80173934
82	0x3f862ccb	1.048242
83	0x3f0f18e4	0.55897355
84	0x3f959750	1.1686802
85	0x3f6c6755	0.9234517
86	0x3f6169d6	0.8805212
87	0x3f41c894	0.7569668
88	0x3f81a600	1.0128784
89	0x3f974ff0	1.182127
90	0x3f1616fc	0.5862882
91	0x3f8aac1c	1.0833774
92	0x3f569b97	0.8383116
93	0x3f4b80e0	0.7949352
94	0x3f9502c5	1.164147
95	0x3f77dcd0	0.9682131
96	0x3ed8c920	0.42340946
97	0x3f84919e	1.0356939
98	0x3f6f2340	0.9341316
99	0x3f459c57	0.7719168
100	0x3f013343	0.50468844
101	0x3f7f160c	0.99643016
102	0x3f78915e	0.9709681
103	0x3ee2c068	0.4428742
104	0x3ef3746d	0.47549763
105	0x3f1ff53f	0.6248359
106	0x3f88cdbd	1.0687786
107	0x3f2ca7e5	0.67443687
108	0x3f6ec41e	0.93268
109	0x3f14433f	0.5791511
110	0x3f0147f2	0.50500405
111	0x3f6a0fbf	0.91430277
112	0x3f6704fb	0.90241975
113	0x3f0a0434	0.53912663
114	0x3f3089cb	0.68960255
115	0x3f5b1228	0.8557458
116	0x3f580989	0.8438955
117	0x3f0ecf05	0.55784637
118	0x3f3b317a	0.7312237
119	0x3f0d3039	0.55151707
120	0x3f44f1cd	0.7693146
121	0x3f712e43	0.94211215
122	0x3f171c66	0.5902771
123	0x3f67bf0b	0.90525883
124	0x3f99173a	1.1960213
125	0x3f4567b8	0.7711139
126	0x3f9faae2	1.2474024
127	0x3f52fa6f	0.8241338
128	0x3f741535	0.9534486
129	0x3f2bf33f	0.6716804
130	0x3f674e75	0.9035409
131	0x3f0cea52	0.55045044
132	0x3f2b5c87	0.6693806
133	0x3f854b32	1.0413573
134	0x3f191025	0.5979026
135	0x3f0a90e5	0.5412734
136	0x3f0c6378	0.5483928
137	0x3f2664fd	0.64997846
138	0x3f7890f4	0.9709618
139	0x3f00bec2	0.50291073
140	0x3f1b24c9	0.60603005
141	0x3f1160a9	0.56788117
142	0x3ef78d58	0.48350024
143	0x3f12261d	0.57089406
144	0x3f147945	0.5799754
145	0x3f0a6922	0.5406667
146	0x3f442b66	0.7662872
147	0x3f83aba5	1.0286757
148	0x3f4af190	0.79274845
149	0x3f383a63	0.7196409
150	0x3f12c957	0.5733847
151	0x3f07a4de	0.5298594
152	0x3f72f543	0.9490549
153	0x3f3ff9f2	0.7499076
154	0x3f511d78	0.8168559
155	0x3f2d5842	0.67712796
156	0x3f8d02c6	1.1016471
157	0x3ec4e038	0.38452315
158	0x3f242249	0.64114815
159	0x3f192e0a	0.59835875
160	0x3f6a3560	0.91487694
161	0x3f276639	0.65390354
162	0x3f5ebbe1	0.8700543
163	0x3f486973	0.782859
164	0x3f2de2fe	0.6792449
165	0x3f07259f	0.5279178
166	0x3f477826	0.77917707
167	0x3f276472	0.6538764
168	0x3ebc6c78	0.36801505
169	0x3f30266a	0.68808615
170	0x3f3ce9dd	0.7379435
171	0x3f3b2879	0.7310863
172	0x3f39c0d3	0.7255985
173	0x3f263e8f	0.64939207
174	0x3f658590	0.89656925
175	0x3f79ba26	0.97549665
176	0x3f5ff53f	0.8748359
177	0x3f60d800	0.8782959
178	0x3f85acb8	1.0443335
179	0x3f4e10f1	0.804946
180	0x3f4a473c	0.79014945
181	0x3f0ff22c	0.562289
182	0x3f8d5ce4	1.1043973
183	0x3f405621	0.7513142
184	0x3fa9a7b0	1.3254299
185	0x3f30c70a	0.6905371
186	0x3eccec9f	0.40024278
187	0x3f0aad57	0.54170746
188	0x3f45a538	0.7720523
189	0x3f389e35	0.72116405
190	0x3f35ffdf	0.71093553
191	0x3f7024b3	0.93806
192	0x3f13523e	0.57547367
193	0x3f2daa09	0.6783758
194	0x3fa7ef02	1.3119814
195	0x3f5148f8	0.81751966
196	0x3ef9cd19	0.4878929
197	0x3f3d23c6	0.7388271
198	0x3eb4096d	0.3516344
199	0x3f143107	0.5788731
200	0x3f3a3eb1	0.7275191
201	0x3f7bf310	0.9841776
202	0x3f7c4777	0.98546547
203	0x3f15e938	0.5855899
204	0x3f3c4fda	0.73559344
205	0x3f3521d9	0.7075477
206	0x3f265995	0.6498044
207	0x3f895337	1.072852
208	0x3f3d1e59	0.7387443
209	0x3f5e9e92	0.8696071
210	0x3f69ec7b	0.91376466
211	0x3f9cf48d	1.2262131
212	0x3f335483	0.7005083
213	0x3fa45b4b	1.284036
214	0x3f243ae2	0.6415235
215	0x3f1710ba	0.590099
216	0x3f462215	0.77395755
217	0x3f41e2f0	0.75736904
218	0x3f92efcc	1.147943
219	0x3f8c7537	1.0973271
220	0x3f092bd3	0.53582495
221	0x3f8239aa	1.0173848
222	0x3f310331	0.69145495
223	0x3f608013	0.87695426
224	0x3ef97220	0.48719883
225	0x3f575828	0.8411889
226	0x3f2acaf6	0.66715944
227	0x3f2dd6d1	0.6790591
228	0x3f4b7dba	0.7948872
229	0x3f31087f	0.6915359
230	0x3f5228ff	0.82093805
231	0x3f53e138	0.8276553
232	0x3f8c13d2	1.0943549
233	0x3f6a58e8	0.9154191
234	0x3f2f0b2e	0.68376434
235	0x3f82279f	1.0168341
236	0x3f9f49bb	1.2444376
237	0x3f642ede	0.89134014
238	0x3f377186	0.716576
239	0x3f75ee9d	0.9606722
240	0x3f411d61	0.75435454
241	0x3f170def	0.59005636
242	0x3f2e3540	0.68050003
243	0x3f72ab83	0.94792956
244	0x3f2f2c3f	0.6842689
245	0x3f04152c	0.51594806
246	0x3f4aa68b	0.79160374
247	0x3f4d1fa5	0.8012641
248	0x3f95a95e	1.1692312
249	0x3f123c0f	0.5712289
250	0x3f071c8c	0.52777934
251	0x3f8448cf	1.033472
252	0x3f8eba91	1.1150686
253	0x3f86dc19	1.0535918
254	0x3f6603bb	0.8984944
255	0x3f7d90cb	0.9904906

b1.bias f4 [256]
0	0xbe4efd0b	-0.20213716
1	0xbd92509d	-0.07144282
2	0xbf0ab839	-0.5418735
3	0xbdfcb485	-0.12339119
4	0x3db6e8c8	0.08931118
5	0xbd558d39	-0.052136634
6	0xbec2d800	-0.3805542
7	0x3cf75806	0.03019334
8	0xbf3e9695	-0.7444852
9	0x3defc877	0.117081575
10	0xbe8f60d7	-0.2800357
11	0xbe21f75e	-0.1581702
12	0xbe2c21c9	-0.16809763
13	0xbc9e316a	-0.019310672
14	0xbe0747e5	-0.1321102
15	0xbf23c594	-0.63973355
16	0xbf14b4ad	-0.5808819
17	0xbf29b2dd	-0.6628855
18	0xbec7f09b	-0.39050755
19	0xbef29bbf	-0.4738445
20	0xbe20589d	-0.15658803
21	0xbf0061a2	-0.50148976
22	0xbe9b1a8d	-0.30293694
23	0xbebfb643	-0.37443742
24	0xbdbc7628	-0.09202224
25	0xbf9f9e0f	-1.2470111
26	0xbea4ffd1	-0.32226422
27	0xbed191d7	-0.4093158
28	0xbea71041	-0.32629588
29	0x3db5326d	0.088475086
30	0xbe8f1186	-0.27943057
31	0xbe30ce8b	-0.1726629
32	0xbdc217fd	-0.09477232
33	0xbe3376b0	-0.17525744
34	0xbe645c1a	-0.22300759
35	0xbdbfbf91	-0.0936271
36	0xbe4616bd	-0.19344611
37	0xbf4f8dbe	-0.81075656
38	0x3edd6666	0.43242186
39	0x3c4da06a	0.012550453
40	0x3d97932c	0.07401118
41	0xbe51b37e	-0.20478627
42	0xbeb1a02a	-0.34692508
43	0xbe64282d	-0.22280951
44	0xbe96f4b5	-0.29483572
45	0x3d4f031a	0.050540067
46	0xbf3663ac	-0.7124584
47	0xbe4e862f	-0.20168374
48	0xbd15e188	-0.036592036
49	0xbef365d5	-0.4753863
50	0xbece850b	-0.4033588
51	0xbdb2884e	-0.08717404
52	0x39fe8d83	0.0004855209
53	0xbec2ca11	-0.3804479
54	0xbe2b98a0	-0.1675744
55	0xbf0c2ac4	-0.54752755
56	0xbd60a554	-0.05484517
57	0x3dd6e958	0.104937255
58	0x3edc75ba	0.43058568
59	0x3eb8b4d2	0.36075455
60	0xbeaaa153	-0.33326206
61	0xbecdc91f	-0.40192506
62	0xbc1221e2	-0.008919211
63	0xbeebff5c	-0.4609326
64	0xbeb14d3b	-0.34629235
65	0xbf32d495	-0.69855624
66	0xbf1dee14	-0.61691403
67	0xbd979235	-0.07400934
68	0xbe567feb	-0.20947234
69	0xbba05604	-0.0048930664
70	0x3dadf4c0	0.08493948
71	0xbf125a1b	-0.5716874
72	0xbea512df	-0.3224096
73	0xbdbdedc0	-0.09273863
74	0xbf3b2f37	-0.7311892
75	0xbee03d4f	-0.43796775
76	0x3df87cab	0.121331535
77	0xbed0d745	-0.40789238
78	0xbedbe82a	-0.42950565
79	0x3e2d561d	0.16927381
80	0xbdfe3a64	-0.12413481
81	0xbe8d4be4	-0.27596962
82	0xbebf75c3	-0.37394533
83	0xbe23b347	-0.15986358
84	0xbf816564	-1.0109067
85	0xbddb2ba1	-0.10701681
86	0x3d719d91	0.058988158
87	0xbc8d25d6	-0.017229956
88	0xbe81b35a	-0.25332147
89	0xbf545dee	-0.82955825
90	0xbe4e24ca	-0.20131221
91	0xbe182774	-0.148588
92	0xbf085e95	-0.5326932
93	0xbefaa852	-0.48956543
94	0xbf1b998d	-0.60781175
95	0xbf019ede	-0.5063304
96	0x3e94710a	0.28992492
97	0xbe6048b1	-0.2190273
98	0xbec8cf20	-0.39220524
99	0xbed7695b	-0.42072567
100	0x3dbf77ba	0.09349008
101	0xbe63e479	-0.22255124
102	0x3e378caa	0.17924753
103	0x3d4b235f	0.04959428
104	0xbe4ab057	-0.19793831
105	0xbed28663	-0.41118154
106	0xbf0cbd55	-0.549764
107	0xbf6cae7f	-0.9245376
108	0xbeab4a29	-0.33455017
109	0x3d730ada	0.05933652
110	0x3ba44957	0.0050136256
111	0xbd73a15a	-0.05948005
112	0xbdb652cf	-0.08902513
113	0x3e8d046c	0.27542436
114	0x3e1136d5	0.14181073
115	0xbef8fc9a	-0.4863022
116	0xbed31444	-0.412264
117	0xbda865e0	-0.08222556
118	0x3e0b327e	0.1359348
119	0xbd92b1b4	-0.071628004
120	0xbdf583f2	-0.11988057
121	0x3dbe449f	0.09290432
122	0xbdb49203	-0.08816912
123	0xbee72c88	-0.45151162
124	0xbf37e0ad	-0.71827203
125	0xbeca9126	-0.39563864
126	0xbf098169	-0.5371309
127	0xbeb37d8e	-0.35056728
128	0xbdbd9540	-0.09256983
129	0xbe6f3d63	-0.23363261
130	0xbdda35d4	-0.10654798
131	0x3db9e387	0.090766005
132	0x3e7832f3	0.24238186
133	0xbf1f74f3	-0.62287825
134	0xbe202dab	-0.15642421
135	0xbf294b3a	-0.6613041
136	0xbf182b8a	-0.59441435
137	0xbe7b1b37	-0.245221
138	0xbf177e2b	-0.5917689
139	0x3f235fbd	0.6381796
140	0xbf1585da	-0.58407366
141	0x3dfd2c5e	0.12361978
142	0x3e1ad834	0.15121537
143	0xbed37832	-0.4130264
144	0xbd534749	-0.051581655
145	0xbd5ecad3	-0.054392647
146	0xbe9bbebd	-0.3041896
147	0xbf4d2426	-0.80133283
148	0xbdad6e72	-0.084683314
149	0xbeb74230	-0.35792685
150	0xbf0b44ee	-0.54402053
151	0xbe8ece13	-0.27891597
152	0xbf8b404e	-1.0878999
153	0xbec583f5	-0.38577238
154	0xbe2aac8e	-0.16667387
155	0xbf0f7021	-0.5603047
156	0x3d735f98	0.059417337
157	0x3ee378c8	0.44428086
158	0xbe168cf0	-0.14702201
159	0xbdf4ef27	-0.11959677
160	0xbeed32ba	-0.46327764
161	0xbea3d9ca	-0.32002097
162	0xbee5195c	-0.4474591
163	0xbedfd572	-0.43717533
164	0xbf42dcb5	-0.7611802
165	0xbedce01a	-0.43139726
166	0xbef676ae	-0.4813742
167	0x3bdd3831	0.0067510833
168	0xbbd4dadd	-0.006495817
169	0xbf169edb	-0.58836144
170	0x3cd23c8e	0.02566364
171	0x3e16a607	0.14711772
172	0x3d113dd1	0.035459343
173	0xbe049ce3	-0.12950473
174	0x3d275c2e	0.040859394
175	0x3dfed65c	0.124432296
176	0xbd7ce770	-0.061744153
177	0xbd64d1e8	-0.055864245
178	0xbedd86c5	-0.43266883
179	0x3d884260	0.06653285
180	0xbe6f2fef	-0.23358129
181	0xbe969fc4	-0.29418766
182	0xbf033080	-0.5124588
183	0xbd8c01da	-0.06836291
184	0xbf81aed0	-1.0131474
185	0x3e433784	0.19064146
186	0x3e56554a	0.20930973
187	0xbe7f1668	-0.24910891
188	0xbd75bd9d	-0.059995282
189	0xbb68ad17	-0.003550356
190	0xbf29437b	-0.6611859
191	0x3d9c4ea4	0.07632187
192	0xbdeb2021	-0.114807375
193	0xbe84f83c	-0.25970638
194	0xbd6749a3	-0.05646671
195	0x3d9fa422	0.07794978
196	0x3dcc121b	0.09964391
197	0xbe890013	-0.2675787
198	0xbda4642a	-0.08026917
199	0xbc88657c	-0.016649954
200	0xbe9fa24c	-0.3117851
201	0xbe9a8169	-0.30176857
202	0xbe810f86	-0.25207156
203	0xbd959457	-0.07303684
204	0x3e048f40	0.1294527
205	0xbeb530b7	-0.3538873
206	0xbe0516fe	-0.12997052
207	0xbf1fdce9	-0.6244646
208	0xbedb42e4	-0.4282447
209	0xbe23f09e	-0.16009757
210	0x3e072a89	0.1319982
211	0xbd5fb9e1	-0.054620627
212	0x3d9a04ee	0.075204715
213	0xbeef7a18	-0.46772838
214	0xbdd43ef6	-0.10363571
215	0xbd8edec2	-0.069760814
216	0xbea49b40	-0.32149696
217	0x3e0ff4ee	0.14058277
218	0xbd51622b	-0.05111901
219	0xbeaf8609	-0.34281948
220	0x3da7f191	0.08200372
221	0xbefab4f2	-0.48966175
222	0x3e5f7eca	0.2182571
223	0xbcb8f939	-0.022579776
224	0x3da25cde	0.07927869
225	0xbcc124d9	-0.02357714
226	0xbe82b335	-0.2552735
227	0xbdcd1614	-0.10013977
228	0xbe8c80e3	-0.27442083
229	0x3db682da	0.08911677
230	0xbef920e5	-0.4865791
231	0xbe81d91c	-0.25360954
232	0xbf24f8fd	-0.64442426
233	0xbf45c174	-0.7724831
234	0xbdaafdfc	-0.08349225
235	0xbf04136a	-0.51592124
236	0xbf0b0439	-0.5430332
237	0xbe97bceb	-0.2963632
238	0xbe993c8b	-0.29929003
239	0xbecf23e8	-0.40457082
240	0xbeb23ea6	-0.34813422
241	0xbdeee1d4	-0.11664167
242	0xbcac0b6e	-0.021001544
243	0xbed92a32	-0.42415005
244	0x3e8f7381	0.2801781
245	0xbda90815	-0.08253495
246	0xbd83b63b	-0.06431242
247	0xbdb336b1	-0.08750666
248	0xbeb36beb	-0.35043272
249	0xbe002274	-0.12513143
250	0xbeffd73c	-0.49968898
251	0xbf2e3c1d	-0.68060476
252	0xbe7fa5c6	-0.24965581
253	0xbf481e83	-0.7817156
254	0xbcf6791b	-0.030087044
255	0xbe1feb59	-0.15617122

b1.running_mean f4 [256]
0	0xbf097cbd	-0.5370596
1	0xbe23e878	-0.16006649
2	0x3dea05ab	0.11426862
3	0xbeef55cd	-0.46745148
4	0xbf9aa020	-1.2080116
5	0x3edc2ad9	0.4300144
6	0xbdca0873	-0.09864893
7	0xbf32cb13	-0.69841117
8	0xbf59cfc5	-0.85082656
9	0x3f1730e2	0.59058964
10	0x3e8f91f5	0.28041044
11	0xbdd42d1b	-0.10360166
12	0xbf39cf9f	-0.7258243
13	0x3e40316c	0.18768853
14	0x3e02cfbb	0.12774555
15	0x3dd440c8	0.103639185
16	0xbf59e487	-0.8511433
17	0xbe8ba4dc	-0.27274215
18	0x3e808000	0.25097656
19	0xbd4307d8	-0.047614902
20	0x3e3817dd	0.17977853
21	0xbe3db5cf	-0.18526386
22	0xbe32e5a7	-0.17470418
23	0x3f1306a8	0.5743203
24	0x3e07e1c3	0.13269715
25	0xbcf76744	-0.030200608
26	0xbe740226	-0.23828945
27	0x3f0f73b8	0.5603595
28	0xbddfe87a	-0.10933013
29	0x3f821010	1.0161152
30	0xbeeba30a	-0.46022826
31	0x3e06a7b3	0.1314991
32	0xbdf4e833	-0.11958351
33	0x3d8c94c5	0.06864313
34	0xbf3c4067	-0.7353577
35	0xbee4b4fe	-0.44669336
36	0xbe45d7a0	-0.19320536
37	0xbe6e27bd	-0.23257346
38	0x3f1e0322	0.6172353
39	0xbf0d880a	-0.55285704
40	0x3ebfb5ac	0.37443292
41	0xbe01065d	-0.12600084
42	0x3f63422c	0.88772845
43	0xbf89d86e	-1.0769174
44	0xbe829088	-0.25500894
45	0x3c86fe72	0.01647875
46	0xbe8f7ed1	-0.2802644
47	0xbf105e85	-0.56394225
48	0x3f267e3e	0.6503638
49	0x3e2e5712	0.17025402
50	0xbe2d4e39	-0.16924371
51	0x3ef04581	0.46928027
52	0xbe74bc73	-0.23900013
53	0xbdce9e8a	-0.10088833
54	0x3db8de53	0.0902678
55	0xbf1bd690	-0.6087427
56	0xbe93e8db	-0.28888592
57	0xbe8bcab4	-0.27303088
58	0x3ee5d6b2	0.44890362
59	0xbf61c936	-0.8819765
60	0xbe2418d7	-0.160251
61	0x3e166575	0.1468714
62	0xbe65128f	-0.22370361
63	0xbaf806ea	-0.0018922959
64	0xbe9caf91	-0.30602697
65	0xbef851d7	-0.4849994
66	0xbf7b0d9d	-0.9806765
67	0xbe36264a	-0.17788044
68	0x3f0ee2d3	0.55814856
69	0xbe300070	-0.17187667
70	0x3eb8ebcf	0.36117408
71	0xbf71288b	-0.9420249
72	0xbf24700e	-0.6423348
73	0xbee75046	-0.4517843
74	0xbda5663d	-0.08076141
75	0xbf448496	-0.7676481
76	0x3f2bab92	0.6705867
77	0x3ebb4c34	0.36581576
78	0xbe5c9c8f	-0.21544097
79	0x3f9e1f0b	1.2353224
80	0xbf612f87	-0.87963146
81	0xbf25d073	-0.64771193
82	0x3f28c733	0.65928954
83	0x3f7a0951	0.97670466
84	0xbf511771	-0.81676394
85	0x3eac529a	0.3365677
86	0x3d054ed1	0.03254587
87	0x3eefca4f	0.46834037
88	0x3de1b1ec	0.11020264
89	0x3e0ca8e2	0.13736299
90	0xbe80d2e7	-0.25160906
91	0x3e475bce	0.19468614
92	0x3e2a836e	0.16651699
93	0xbbe748be	-0.007058232
94	0x3db0ab20	0.086263895
95	0xbf183717	-0.5945906
96	0xbf56207f	-0.83643335
97	0xbe9fdd7b	-0.31223664
98	0xbf87e3bf	-1.0616378
99	0xbeae2bb3	-0.34017715
100	0x3ef4dd9b	0.47825322
101	0x3b6242ba	0.0034524635
102	0xbd8baca9	-0.06820042
103	0xbf013406	-0.50470006
104	0x3f88e614	1.0695214
105	0xbf695f61	-0.9116116
106	0xbec15b01	-0.37764743
107	0xbf8b97d7	-1.0905713
108	0x3dedc552	0.116099015
109	0x3ebca70e	0.36846203
110	0x3e446b2b	0.19181506
111	0x3e051c28	0.12999022
112	0x3f3c9307	0.73661846
113	0x3f2bffb3	0.6718704
114	0x3ee788d4	0.4522158
115	0xbe85c1fa	-0.26124555
116	0xbe9b4895	-0.30328813
117	0x3f21f4c4	0.6326411
118	0x3def9da5	0.1169999
119	0xbed757f0	-0.42059278
120	0xbe58eb1c	-0.21183437
121	0xbd852e20	-0.06502938
122	0x3f86c291	1.0528127
123	0xbc208154	-0.009796459
124	0x3d8fc77a	0.07020469
125	0x3d2efc33	0.042720985
126	0xbd9720b4	-0.073792845
127	0x3e8069d0	0.2508073
128	0x3e92f434	0.28701937
129	0x3dbed779	0.09318442
130	0xbdfbc9aa	-0.12294324
131	0x3e709b59	0.2349676
132	0x3ea17d87	0.31541082
133	0x3dc43b95	0.09581677
134	0xbe77d4c8	-0.24202263
135	0xbebdd983	-0.3708001
136	0xbf97f455	-1.1871439
137	0x3e167533	0.14693145
138	0xbeec02ea	-0.46095973
139	0x3fa820de	1.313503
140	0x3e89f17d	0.26942053
141	0x3f1bb5da	0.6082436
142	0x3de080b7	0.109620504
143	0xbe829b20	-0.25508976
144	0xbea112fb	-0.31459793
145	0x3ed1f862	0.41009814
146	0x3ed71aba	0.42012578
147	0xbda7e5ac	-0.08198103
148	0x3e16aef7	0.14715181
149	0x3d497bee	0.049190454
150	0xbdcb6186	-0.099307105
151	0x3f1478d3	0.57996863
152	0xbe397523	-0.1811109
153	0x3dc4eebf	0.0961585
154	0x3e805b1d	0.25069514
155	0xbdb41e6d	-0.08794866
156	0x3ebc06fd	0.36724082
157	0x3f79a3e3	0.97515696
158	0x3e89f281	0.26942828
159	0xbf06e14f	-0.52687544
160	0xbd465db4	-0.048429206
161	0xbf00bb4f	-0.5028581
162	0xbe29e234	-0.16590196
163	0x3dfb8e44	0.122829944
164	0x3d230276	0.03979727
165	0xbfb3a69e	-1.4035223
166	0x3e3288bf	0.17434977
167	0x3eaf84f5	0.34281126
168	0xbfb16d1d	-1.3861424
169	0x3dd98b1a	0.10622235
170	0xbe176b95	-0.14787133
171	0xbde346f5	-0.11097518
172	0x3d52c276	0.051454984
173	0x3ed472b7	0.4149377
174	0x3e04582a	0.12924257
175	0x3e8f7f04	0.28026593
176	0x3e18d9cd	0.14926834
177	0x3e890b10	0.26766253
178	0xbdda119f	-0.10647892
179	0x3e9f43bc	0.31106365
180	0xbe66873f	-0.2251253
181	0x3ee1c118	0.4409263
182	0x3eaccb8d	0.33749047
183	0x3e9c9f20	0.30590153
184	0xbf8a9a4b	-1.0828336
185	0x3e64eb5f	0.22355412
186	0xbe14a095	-0.14514382
187	0xbe53a90c	-0.20669955
188	0xbcc05a9e	-0.02348071
189	0xbe9be911	-0.30451253
190	0xbe46cef9	-0.19414891
191	0x3e810871	0.25201753
192	0xbedae2f6	-0.42751282
193	0x3eaba0b2	0.33521038
194	0x3f1e601b	0.61865395
195	0x3e628bdc	0.22123665
196	0x3dfeaf07	0.124357276
197	0xbf626298	-0.8843169
198	0x3e7a6a43	0.24454598
199	0xbefcc3d1	-0.49368146
200	0x3dfc0769	0.12306101
201	0xbf4a2bf2	-0.78973305
202	0x3f356a91	0.7086573
203	0x3e92b64d	0.2865471
204	0xbd24d6a5	-0.040243763
205	0x3e2ee60e	0.17079946
206	0xbee51dfe	-0.44749445
207	0xbe2977eb	-0.16549651
208	0xbec28b2a	-0.379968
209	0xbec81a6d	-0.3908266
210	0xbeb01f1c	-0.34398735
211	0x3e1d637b	0.1536998
212	0x3f2556bc	0.6458547
213	0x3e1ccfa8	0.1531359
214	0x3ee56673	0.44804725
215	0xbe0bcf60	-0.13653326
216	0x3d501eb7	0.050810542
217	0x3ee0fa69	0.43941048
218	0xbeb405fd	-0.3516082
219	0x3f662219	0.8989578
220	0x3eb237fd	0.3480834
221	0x3d77b2f2	0.06047339
222	0x3fbbb4ae	1.4664514
223	0xbf1a9ec7	-0.60398525
224	0x3e895126	0.26819724
225	0xbd65bf93	-0.056090903
226	0xbf7029df	-0.9381389
227	0xbd7cc101	-0.0617075
228	0x3ea7db01	0.32784274
229	0x3ebe241f	0.37136933
230	0xbed63408	-0.41836572
231	0xbe6a56c0	-0.22884655
232	0x3d3953d5	0.045245964
233	0x3e9f1293	0.31068859
234	0x3e92b7eb	0.28655943
235	0x3e9d1ab9	0.3068445
236	0x3e97085c	0.29498565
237	0xbea4af1f	-0.32164857
238	0x3f1265ce	0.5718659
239	0xbf2e615b	-0.681173
240	0x3e4fe3bf	0.20301722
241	0xbf4acce7	-0.79218906
242	0x3e405771	0.18783356
243	0xbe2fdbe4	-0.17173725
244	0xbcdef6ea	-0.027217347
245	0x3e7889d1	0.24271323
246	0xbefa8a48	-0.48933625
247	0xbe0e6989	-0.13907446
248	0xbd7f8443	-0.062381994
249	0xbebb5185	-0.36585632
250	0x3d4f6415	0.050632555
251	0xbd112d5e	-0.035443656
252	0x3d31db77	0.04342219
253	0xbedb4269	-0.42824104
254	0x3f10bfc6	0.56542623
255	0x3f63a102	0.88917553

b1.running_var f4 [256]
0	0x3ed9590f	0.4245076
1	0x3f26db5b	0.6517846
2	0x3def42a0	0.116826296
3	0x3f857f41	1.042946
4	0x3fa1f686	1.2653358
5	0x3ee37cf8	0.4443128
6	0x3f97fd0c	1.1874099
7	0x401d6941	2.4595492
8	0x3f55d6fa	0.83531153
9	0x4013c9dd	2.3091958
10	0x3f0baa0b	0.5455634
11	0x3f52f059	0.8239799
12	0x3f23fe96	0.6406034
13	0x3fd062f4	1.6280198
14	0x3f94fc34	1.1639466
15	0x3e8f92f8	0.28041816
16	0x3ecbd7d2	0.39813095
17	0x3f0d6852	0.55237305
18	0x3e9164f4	0.28397334
19	0x3ec59009	0.38586453
20	0x3f669449	0.90070015
21	0x3fa7b405	1.3101813
22	0x3e2af2cc	0.16694182
23	0x3e4ea79e	0.20181128
24	0x3d3b492b	0.045724075
25	0x3eee539c	0.46548164
26	0x3f449a6f	0.76798147
27	0x3f10de24	0.5658896
28	0x3f286318	0.65776205
29	0x3f903ffb	1.1269525
30	0x3d9e7bfa	0.077384904
31	0x3e510dc5	0.20415409
32	0x3f62dc79	0.88617665
33	0x3f610a2d	0.8790615
34	0x407019b9	3.75157
35	0x3ee3787c	0.4442786
36	0x3ecc2ce3	0.39877996
37	0x3ea0524c	0.31312788
38	0x3f556848	0.83362246
39	0x3eb26122	0.3483973
40	0x3f866157	1.0498456
41	0x3f90e345	1.1319357
42	0x3edffc0d	0.43746987
43	0x3e804b56	0.25057477
44	0x3f22a15b	0.6352746
45	0x3ef67fcb	0.48144373
46	0x3f465938	0.77479887
47	0x3eb55911	0.35419515
48	0x3f50cb65	0.81560355
49	0x3e79c214	0.24390441
50	0x3d488c86	0.04896214
51	0x3f96b4e2	1.1773951
52	0x3e5b66d4	0.21425945
53	0x3eddc63e	0.4331531
54	0x3e36cc7a	0.17851439
55	0x3ecf7676	0.40520066
56	0x3efd02dc	0.49416244
57	0x3eca528d	0.39516106
58	0x3dd544e1	0.10413528
59	0x3fdbac5d	1.7161976
60	0x3e73a777	0.23794352
61	0x3f2c88fb	0.67396516
62	0x3dbb14a5	0.09134797
63	0x3f22e4b8	0.6363025
64	0x3eb601e6	0.35548323
65	0x3f87c1b0	1.0605984
66	0x3ef93744	0.48674977
67	0x3e99d8fe	0.30048364
68	0x3f559d86	0.83443487
69	0x3f8eedf7	1.1166371
70	0x3f92a88a	1.1457684
71	0x3ecc5901	0.39911655
72	0x3fb3e1c7	1.4053277
73	0x3f6c9325	0.92412025
74	0x3f294bfa	0.66131556
75	0x3ef115d0	0.47086954
76	0x3ed0e2f9	0.40798166
77	0x3e91ae51	0.28453305
78	0x3e178b8a	0.14799324
79	0x3eb947e9	0.36187676
80	0x3f3670e0	0.71265984
81	0x3f46041c	0.7735002
82	0x3f72e7cd	0.9488495
83	0x3f668683	0.90049
84	0x3eee33bf	0.46523854
85	0x3f0e1940	0.5550728
86	0x3e2dd354	0.16975147
87	0x3e472b47	0.19450103
88	0x3ed35cda	0.41281778
89	0x3f0c7c19	0.5487686
90	0x3fb9959d	1.4498783
91	0x3e4eb2f6	0.20185456
92	0x3f00ac14	0.5026257
93	0x3dc9d66d	0.098553516
94	0x3ebcdf2b	0.36889014
95	0x3f62692c	0.8844173
96	0x3eea2d7a	0.4573782
97	0x3f4d0327	0.80082935
98	0x3f5f5b30	0.87248516
99	0x3f1db950	0.6161089
100	0x3f412987	0.7545399
101	0x3e001d7f	0.12511252
102	0x4080dc9e	4.026931
103	0x3ef04ac1	0.46932033
104	0x3e8fae56	0.28062695
105	0x3eb4f97b	0.35346588
106	0x3f5d4e8e	0.8644799
107	0x3eaf67bb	0.34258828
108	0x3fae2b93	1.3607048
109	0x3eb8ebe1	0.3611746
110	0x3efac50a	0.48978454
111	0x3f40216a	0.75050986
112	0x3ea27586	0.31730288
113	0x40270fce	2.6103396
114	0x3e657195	0.2240661
115	0x3e82ea68	0.25569463
116	0x3f605962	0.8763639
117	0x3ee80604	0.4531709
118	0x3f9d6460	1.2296257
119	0x3f0df9cd	0.5545929
120	0x3ddf1191	0.108920224
121	0x3eb3f703	0.35149392
122	0x3ead17ca	0.33807212
123	0x3df0f09c	0.117646426
124	0x3df1d387	0.11807924
125	0x3f6031ed	0.8757618
126	0x3f09ff97	0.53905624
127	0x3dac6b74	0.084189326
128	0x3e745c8a	0.23863426
129	0x3f152c5f	0.5827083
130	0x3dd81d80	0.10552502
131	0x3eca9bb9	0.39571932
132	0x3f0fbfef	0.5615224
133	0x3eb02643	0.3440419
134	0x3e638c97	0.222216
135	0x3f32c537	0.69832176
136	0x3f18b364	0.5964873
137	0x3d7879a8	0.060662895
138	0x3f059ca6	0.5219215
139	0x3e590bf3	0.21195965
140	0x3f953292	1.1656058
141	0x3ec07890	0.37591982
142	0x400fd74e	2.2475162
143	0x3f309990	0.6898432
144	0x3f5226f2	0.82090676
145	0x3e4fa3d3	0.20277338
146	0x3eb2b537	0.3490388
147	0x3f083e20	0.53219795
148	0x3dc3957b	0.095499955
149	0x3f7921fb	0.97317475
150	0x3f351302	0.7073213
151	0x3f191571	0.5979834
152	0x3ee259c0	0.442091
153	0x3eefab69	0.46810463
154	0x3f4aaf50	0.79173756
155	0x3f67685e	0.90393627
156	0x3faa194b	1.3288969
157	0x3f8f2491	1.1183034
158	0x3d947d3b	0.07250448
159	0x3fc4ab53	1.5364784
160	0x3f325763	0.6966459
161	0x3ef287c1	0.47369197
162	0x3dcf3f77	0.10119527
163	0x3e56b26a	0.20966497
164	0x3f01d002	0.5070802
165	0x3f2f3e0f	0.6845407
166	0x3e35b729	0.17745651
167	0x3e9dc206	0.3081209
168	0x3edba95f	0.42902657
169	0x3f482fe3	0.7819807
170	0x3f0ec9ea	0.55776846
171	0x3fccde9a	1.6005433
172	0x3f3b0ec2	0.73069394
173	0x3eeb90cb	0.46008906
174	0x3ef98b2f	0.48739
175	0x3d9c232d	0.07623897
176	0x3d83b249	0.064304896
177	0x3fd2e1c4	1.6475148
178	0x3ef899da	0.4855488
179	0x3ebc9789	0.36834362
180	0x3ed1db14	0.40987456
181	0x3f3ef0e4	0.7458632
182	0x3ed0b3cb	0.4076217
183	0x3fa5ded6	1.2958629
184	0x3e7b889f	0.24563836
185	0x3f83f8c4	1.0310292
186	0x3fc0d5d9	1.5065261
187	0x3e78c97d	0.24295612
188	0x3e97e5a2	0.29667383
189	0x3e7477d2	0.23873833
190	0x3eadf0bf	0.33972737
191	0x3ebfa2fb	0.37429032
192	0x3ec0f36c	0.37685716
193	0x3f6b540f	0.9192514
194	0x3f2d9862	0.6781064
195	0x3e2ac6ee	0.16677448
196	0x3f95effd	1.1713864
197	0x3f891054	1.0708108
198	0x3ebb01ba	0.36524755
199	0x3fdb038a	1.7110455
200	0x3e8014fb	0.25016007
201	0x3fa2c0dc	1.2715106
202	0x3edd8cfe	0.4327163
203	0x3f4151b9	0.75515324
204	0x3f7d28da	0.9889046
205	0x3f11f89f	0.5701999
206	0x3fb1363c	1.3844676
207	0x4025c512	2.5901532
208	0x3fe634b4	1.7984834
209	0x3f260ba7	0.6486153
210	0x3f13358e	0.5750359
211	0x3f7793ad	0.9670971
212	0x3fb6467a	1.4240258
213	0x3f4cc78b	0.7999198
214	0x3f909b6b	1.129743
215	0x3ebb2f5b	0.36559567
216	0x3f1dd927	0.61659473
217	0x3e517238	0.20453727
218	0x3f5b7980	0.8573227
219	0x3fb0f015	1.3823267
220	0x3eca4025	0.39502063
221	0x3f7890a3	0.970957
222	0x3f03a197	0.5141844
223	0x3fae0f2c	1.359838
224	0x3f6d491c	0.9268968
225	0x3e903e97	0.28172752
226	0x3ec500ee	0.38477272
227	0x3eec7883	0.46185693
228	0x3ebbda9f	0.36690232
229	0x3f03010e	0.51173484
230	0x3e82190d	0.25409737
231	0x3db083c8	0.08618885
232	0x3e8d8d0f	0.27646682
233	0x3f2995a1	0.6624394
234	0x3ec7f13f	0.39051244
235	0x3f220482	0.6328813
236	0x3e21f67e	0.15816686
237	0x3f0d07ec	0.5509021
238	0x3e81bb35	0.2533814
239	0x3ecbcf1f	0.39806458
240	0x3d7efe6b	0.06225435
241	0x3f0c1ede	0.547346
242	0x3ecad36a	0.3961442
243	0x40245e28	2.5682468
244	0x3f4e0f85	0.8049243
245	0x3e8732e0	0.26406002
246	0x3e77c4e8	0.24196208
247	0x3eb4cf42	0.35314375
248	0x3d3dbf9f	0.046325322
249	0x3e43b0e7	0.19110452
250	0x3e51c3f2	0.20484903
251	0x3f395475	0.72394496
252	0x3edae1b5	0.42750326
253	0x3f371cf6	0.71528566
254	0x3eb649cc	0.35603178
255	0x3f52a61b	0.82284707

fc2.weight f4 [128, 256]
0	0x3db7f0ab	0.08981451
1	0xbebf775c	-0.3739575
2	0xbdb48044	-0.08813527
3	0xbda67232	-0.0812725
4	0x3e1c3148	0.15253174
5	0x3d1e44e0	0.038639903
6	0x3ed4959e	0.415204
7	0xbdf2e45a	-0.11859961
8	0xbe5e6162	-0.21716836
9	0x3e494be8	0.19657862
10	0xbd46fd9f	-0.048581716
11	0xbdf52477	-0.11969846
12	0x3d206c32	0.039165683
13	0x3f3ef219	0.7458816
14	0xbed5448b	-0.41653857
15	0x3ec021b8	0.37525725
16	0x3ea9eac6	0.3318693
17	0x3e815beb	0.2526544
18	0x3e5441b2	0.20728186
19	0x3cba6d19	0.0227571
20	0x3e8487f2	0.25884968
21	0xbd9eaeb2	-0.07748164
22	0x3dc8061b	0.097667895
23	0x3e3a3373	0.18183689
24	0x3de8f8b2	0.1137556
25	0x3e4197d2	0.18905571
26	0xbe6d90b7	-0.23199736
27	0x3e3ffd9a	0.18749085
28	0x3eadb5a6	0.3392765
29	0x3e1c425e	0.15259692
30	0x3d7f41ca	0.0623186
31	0x3eb392bb	0.35072884
32	0x3ecf86d4	0.40532553
33	0xbe4e9df6	-0.20177445
34	0x3e1734e5	0.14766271
35	0xbe2792f7	-0.16364656
36	0x3e0f1c58	0.13975656
37	0xbaa2c23c	-0.0012417505
38	0xbdaacf8e	-0.08340369
39	0x3aed0d1c	0.0018085572
40	0xbe54d7a5	-0.20785387
41	0xbd42280e	-0.04740148
42	0x3e85d49b	0.26138768
43	0x3e1db8e8	0.15402567
44	0x3e603d59	0.21898402
45	0x3e6da19e	0.23206183
46	0x3e7f7975	0.24948676
47	0xbcb39f80	-0.021926641
48	0x3d541070	0.05177349
49	0x3d9599d9	0.07304735
50	0xbd667c41	-0.05627084
51	0xbf07229a	-0.5278717
52	0x3dd8a319	0.105779834
53	0x3df2b9c9	0.11851842
54	0xbe80da86	-0.2516672
55	0xbee55a1d	-0.44795313
56	0x3e18754e	0.14888498
57	0x3e0fbf4e	0.1403782
58	0xbdf7fa42	-0.1210828
59	0xbe878e5a	-0.26475793
60	0x3e5fd2df	0.21857785
61	0xbe8fe091	-0.28101018
62	0x3db75093	0.08950915
63	0x3ae0d069	0.0017151955
64	0xbf10cead	-0.5656536
65	0xbe9c41bf	-0.3051891
66	0x3d9f44f3	0.07776823
67	0xbe9d7c74	-0.30759013
68	0x3e1f5091	0.15558077
69	0xbd66ec31	-0.056377593
70	0xbdddd931	-0.108324416
71	0x3dee8b41	0.11647654
72	0xbd97fe41	-0.07421542
73	0xbcdb9398	-0.026803777
74	0xbd8be48e	-0.06830703
75	0x3e676b8c	0.2259962
76	0xbdfa42b0	-0.12219751
77	0x3d5cf031	0.053940002
78	0xbe193394	-0.14961082
79	0x3e4892c6	0.1958724
80	0x3e8e0cb0	0.27744055
81	0xbe6b2795	-0.22964318
82	0x3f14636b	0.579642
83	0xbceb7c5f	-0.028745828
84	0x3d1a795c	0.037713394
85	0xbea8001b	-0.3281258
86	0x3db6f4dc	0.08933422
87	0x3db16e15	0.086635746
88	0xbe540707	-0.20705806
89	0xbd6a7a97	-0.057245817
90	0x3da1bdd9	0.07897539
91	0xbd98170f	-0.07426273
92	0x3ea2beb8	0.31786132
93	0x3e0fc555	0.1404012
94	0xbd853b78	-0.065054834
95	0xbe497d8d	-0.196768
96	0xbc6e4eea	-0.014545182
97	0xbe5b5a76	-0.21421227
98	0xbc3b05d7	-0.011414967
99	0xbe6042ae	-0.21900436
100	0x3e1be43a	0.1522378
101	0x3e854350	0.26027918
102	0xbe35040c	-0.17677325
103	0x3e6e2943	0.23257928
104	0x3e384655	0.1799558
105	0xbd4ba8d4	-0.049721554
106	0xbee89c8e	-0.45431942
107	0xbeb983f9	-0.362335
108	0xbe4cd2ca	-0.20002285
109	0x3e9ee08c	0.3103069
110	0x3e8d0e90	0.27550173
111	0xbe8c978e	-0.27459377
112	0x3daf55a7	0.08561259
113	0xbdfd7111	-0.12375081
114	0x3e3091fe	0.17243192
115	0xbe7e6557	-0.24843346
116	0x3e36402b	0.17797916
117	0xbdad01b0	-0.084475875
118	0xbe5cd6bf	-0.21566294
119	0xbdbd3e9d	-0.09240458
120	0xbd0d6649	-0.034521375
121	0x3e3f96f9	0.18709935
122	0x3d29cc06	0.041454338
123	0x3d750ab6	0.059824668
124	0xbd82a10d	-0.06378374
125	0xbb1ee1c9	-0.0024243465
126	0x3db1e793	0.086867474
127	0x3ef5aac0	0.47981834
128	0xbe7a7ef0	-0.24462485
129	0x3ee076e2	0.438407
130	0x3e0be63e	0.13662049
131	0x3dbeb69a	0.09312172
132	0xbe943896	-0.28949422
133	0xbe8157d4	-0.2526232
134	0xbef74f4c	-0.48302686
135	0xbee0c70b	-0.43901858
136	0xbedcfeac	-0.4316305
137	0x3e8c32d5	0.27382532
138	0xbe8011eb	-0.2501367
139	0x3cbd5e4a	0.02311625
140	0xbe2eaa59	-0.1705717
141	0xbe0f27fa	-0.13980094
142	0xbea1c4e6	-0.31595534
143	0x3da36c64	0.07979658
144	0x3dc97e14	0.098385006
145	0xbbd34026	-0.006446856
146	0xbe037c77	-0.12840448
147	0x3c00ebab	0.007868688
148	0xbd51002a	-0.051025547
149	0xbc57c2f8	-0.013169043
150	0x3deef71b	0.116682254
151	0xbe4ccc43	-0.19999795
152	0x3e370c47	0.17875777
153	0xbf281a46	-0.6566509
154	0xbe97f8e6	-0.29682082
155	0x3e02e76f	0.12783597
156	0x3e44fe39	0.19237603
157	0xbe473d7e	-0.19457051
158	0x3d2b2cb1	0.041790668
159	0xbe6e8594	-0.23293144
160	0x3e2b6102	0.16736224
161	0xbf1d394b	-0.6141555
162	0xbea62b01	-0.32454684
163	0x3eeb012d	0.45899335
164	0xbcce4bad	-0.02518257
165	0x3e06e231	0.13172223
166	0xbeb2eb69	-0.3494523
167	0x3ea7c07b	0.32764038
168	0x3ddc1083	0.10745337
169	0xbc5162b9	-0.012779885
170	0x3dda2167	0.10650902
171	0xbe470b4c	-0.19437903
172	0xbe67bbcc	-0.22630233
173	0xbdf7d60f	-0.12101375
174	0xbf14f27f	-0.5818252
175	0xbcfdff80	-0.031005621
176	0x3bd10a76	0.006379421
177	0x3e82ca1b	0.2554482
178	0xbbfb6af4	-0.007672662
179	0xbd52602a	-0.05136124
180	0xbe143fe7	-0.14477502
181	0x3ded1d9b	0.115779124
182	0xbd21266b	-0.03934328
183	0xbe17e7e5	-0.14834554
184	0x3e321638	0.17391288
185	0xbdae965a	-0.08524771
186	0x3e641d6d	0.2227685
187	0x3ea0461d	0.31303492
188	0xbe3ce919	-0.18448295
189	0xbee78977	-0.45222065
190	0xbdcfb3bb	-0.10141703
191	0x3ea7d2e0	0.32778072
192	0xbf2ea168	-0.68215036
193	0xbe7f3bf5	-0.24925216
194	0xbdcef12a	-0.10104592
195	0x3bee5333	0.0072731017
196	0x3f08f868	0.5350404
197	0x3e614164	0.21997601
198	0x3eb94191	0.36182836
199	0x3bc19624	0.0059077907
200	0xbeeeb6fe	-0.46623987
201	0x3dabccc5	0.08388666
202	0x3eb1fa8a	0.3476146
203	0x3ced919f	0.029000102
204	0xbdd8bc2e	-0.105827674
205	0xbecf989b	-0.40546116
206	0xbdc2ceb5	-0.095120825
207	0x3e695282	0.2278538
208	0x3df9fb55	0.12206141
209	0x3d91b0f1	0.07113827
210	0xbe831465	-0.25601497
211	0xbe861ce2	-0.2619391
212	0xbdfde80d	-0.12397776
213	0xbe8ef17e	-0.2791862
214	0x3e83478d	0.25640526
215	0xbe4782a8	-0.19483435
216	0xbdb58aff	-0.08864402
217	0xbdb78590	-0.08961022
218	0x3de3ae7b	0.11117264
219	0x3e16e624	0.14736229
220	0xbeafe7c0	-0.343565
221	0xbcc3f4d8	-0.023920462
222	0xbe1ec15f	-0.15503453
223	0xbe2b9f7c	-0.16760057
224	0xbe341093	-0.17584448
225	0x3d84748f	0.06467544
226	0x3e458cdc	0.19292015
227	0x3eb14213	0.34620723
228	0xbde587b5	-0.11207525
229	0x3e1b6101	0.15173723
230	0xbebe108d	-0.37122002
231	0x3e7174f1	0.23579766
232	0xbb4c897e	-0.0031209881
233	0x3db62404	0.08893588
234	0xbd574c7c	-0.052563176
235	0xbe26376a	-0.16232076
236	0xbe5caaa6	-0.21549472
237	0x3c48e74c	0.012262177
238	0x3e459a96	0.19297251
239	0xbe8340be	-0.25635332
240	0x3e158bf2	0.14604166
241	0x3ee70382	0.45119864
242	0x3dcf1a87	0.101124816
243	0xbd9c91e8	-0.07645017
244	0xbdd4e2d2	-0.10394825
245	0xbf7934bc	-0.9734609
246	0xbc3fff1e	-0.0117185395
247	0xbe293104	-0.16522604
248	0x3de84d1f	0.11342835
249	0xbccc6a99	-0.024953173
250	0xbe11e09c	-0.14245838
251	0xbdd71e49	-0.10503823
252	0x3e0612ed	0.13093157
253	0xbe85a611	-0.2610326
254	0xbe8b8499	-0.272496
255	0x3e813a3c	0.25239742

fc2.bias f4 [128]
0	0x3d8c1205	0.068393745
1	0xbcfa3bb6	-0.03054605
2	0xbe0bfa71	-0.13669755
3	0xbe016bfc	-0.12638849
4	0xbe1e38d5	-0.15451367
5	0xbe10233b	-0.1407594
6	0xbdcefcbf	-0.10106801
7	0xbdc3caf6	-0.09560196
8	0xbd1c72b7	-0.038195338
9	0xbdec9224	-0.115513116
10	0xbe14cc3b	-0.14531033
11	0x3d8723c3	0.06598618
12	0xbe3f3f01	-0.18676378
13	0xbe14a3f9	-0.14515676
14	0x3ddb2a38	0.10701412
15	0x3b67f058	0.0035391059
16	0x3c3c172b	0.011480133
17	0xbdbcbd31	-0.09215773
18	0xbe071d6d	-0.13194819
19	0xbec705ff	-0.38871762
20	0xbd97436c	-0.073859066
21	0x3d9eda7f	0.077565186
22	0x3d544f15	0.05183323
23	0x3ca78ca4	0.020452805
24	0xbd505ce7	-0.05086985
25	0xbe0a96c7	-0.1353408
26	0xbe9a0a88	-0.3008616
27	0x3b8d98c8	0.0043211915
28	0xbdfdd0fa	-0.12393375
29	0xbdc16a9f	-0.094441645
30	0xbe23d438	-0.15998924
31	0x3dc03bb5	0.09386388
32	0xbe8b8bf7	-0.27255222
33	0x3e2a93cb	0.16657941
34	0x3d61e977	0.05515429
35	0xbe0bf508	-0.13667691
36	0xbe4395e9	-0.19100155
37	0xbe45b752	-0.19308212
38	0xbda8fc2a	-0.082512215
39	0x3d95c152	0.073122635
40	0xbe251adc	-0.16123527
41	0x3d9ce44c	0.07660732
42	0xbc8e6a72	-0.017384741
43	0xbd310c3b	-0.043224555
44	0x3c5d3f3b	0.013503845
45	0x3d835479	0.06412596
46	0xbd61d7e7	-0.05513754
47	0x3df874e7	0.12131672
48	0x3d7f194e	0.06227999
49	0x3a280d90	0.00064107124
50	0x3dc6b200	0.097019196
51	0x3c9a55c9	0.018839734
52	0xbde1a7af	-0.11018311
53	0x3cd7744c	0.026300572
54	0x3d838246	0.06421332
55	0xbe0813d8	-0.1328882
56	0xbcae1558	-0.021250412
57	0xbc4b671f	-0.012414723
58	0xbd5b183f	-0.05348992
59	0xbdc67c43	-0.0969167
60	0xbdd6d78d	-0.10490332
61	0xbdbeb9d0	-0.09312785
62	0xbe432894	-0.19058448
63	0xbdd1413b	-0.1021752
64	0xbd0dfce4	-0.034665003
65	0x3cc87fac	0.024474941
66	0xbe525042	-0.20538428
67	0xbd64bccf	-0.055844124
68	0xbc392453	-0.011300164
69	0x3d80eef7	0.06295579
70	0xbdc5112e	-0.096224174
71	0xbd9a2b6a	-0.07527812
72	0xbda3397c	-0.07969949
73	0xbd0f348c	-0.034962222
74	0x3d8d15f0	0.0688895
75	0xbe39033d	-0.18067642
76	0x3e1c81fc	0.1528396
77	0xbe06ffd6	-0.13183531
78	0x3be976eb	0.007124772
79	0xbe0690ec	-0.13141221
80	0xbd8a2742	-0.06745769
81	0x3dd2d751	0.102949746
82	0x3dc110e4	0.0942705
83	0xbe3420df	-0.17590664
84	0xbba62ee2	-0.005071507
85	0xbbbce146	-0.0057641594
86	0xbd786f5a	-0.060653068
87	0xbec20a6a	-0.3789857
88	0x3d2aecd7	0.041729774
89	0xbd91fd96	-0.07128446
90	0xbce25f3e	-0.027633306
91	0xbce5819a	-0.0280159
92	0xbe542ddd	-0.2072062
93	0xbe6a31e9	-0.22870602
94	0x3e1aa177	0.15100656
95	0xbd8d0312	-0.06885351
96	0x3d675d36	0.056485377
97	0x3e008bc4	0.12553316
98	0xbd903ccc	-0.07042846
99	0x3cedf456	0.029047173
100	0x3d2c4024	0.042053357
101	0xbde05c7c	-0.1095514
102	0xbea45f41	-0.32103923
103	0xbeadb5c4	-0.3392774
104	0x3e01058a	0.12599769
105	0x3e2a9560	0.16658545
106	0xbdd2b648	-0.10288674
107	0xbdbf5136	-0.09341662
108	0xbe67e12b	-0.22644489
109	0xbc71a9b3	-0.014749932
110	0xbe7666ee	-0.24062702
111	0xbdca40b5	-0.09875623
112	0x3d3fbabe	0.04680895
113	0xbc29e67c	-0.010369893
114	0xbd76b7b6	-0.060233794
115	0xbdf85a24	-0.12126568
116	0x3e3f2e15	0.18669923
117	0xbe15db88	-0.14634526
118	0xbda9ae1c	-0.08285162
119	0xbe81b793	-0.2533537
120	0xbcdc0338	-0.026857004
121	0xbda92109	-0.08258254
122	0xbe04c652	-0.12966278
123	0xbe911e49	-0.28343418
124	0x3d257373	0.040393304
125	0xbdddede5	-0.108363904
126	0x3dd51092	0.10403551
127	0x3c97add9	0.018515514
